assignment3/part1/logs/z2/lightning_logs/version_17332649/checkpoints/epoch=79-step=33760.ckpt (torch, 872213 bytes, 26 tensors)

encoder.net.0.weight f4 [32, 1, 3, 3]
0	0x3e058934	0.1304062
1	0x3e1f5679	0.1556033
2	0xbde8bf89	-0.113646574
3	0x3dbac2c1	0.091191776
4	0xbcf1e6f1	-0.029529067
5	0xb9d563ad	-0.0004070079
6	0xbe136c51	-0.14396788
7	0x3e05e9a2	0.13077405
8	0x3e737807	0.23776256
9	0xbe68dfcc	-0.22741622
10	0x3e49cf4b	0.19707982
11	0x3db216cf	0.08695757
12	0x3e2b8706	0.16750726
13	0x3da80757	0.08204525
14	0x3e4aa435	0.19789203
15	0x3ce34c23	0.027746266
16	0x3e478bc5	0.19486912
17	0xbdd6cfa6	-0.104888245
18	0xbe1729d9	-0.14762057
19	0x3e54b764	0.20773083
20	0xbe3571e0	-0.17719221
21	0xbda42f79	-0.08016867
22	0xbd7d7acc	-0.061884686
23	0x3e549906	0.20761499
24	0xbd972eb7	-0.07381957
25	0xbd87cc03	-0.06630709
26	0xbd75bb30	-0.05999297
27	0xbdad5857	-0.08464115
28	0x3d2b88e6	0.041878603
29	0xbeda86dc	-0.42681015
30	0x3e493213	0.19648008
31	0xbe43ac09	-0.19108595
32	0x3e8a474a	0.27007514
33	0x3d44159e	0.04787218
34	0xbd804e5d	-0.062649466
35	0x3e86e0fe	0.2634353
36	0x3d5f2519	0.05447874
37	0x3e88dff1	0.26733354
38	0x3d99d709	0.07511718
39	0xbe39d60d	-0.1814806
40	0x3db062c9	0.08612592
41	0xbe46547f	-0.1936817
42	0x3e3d7ee3	0.18505435
43	0x3e9f8a69	0.31160286
44	0x3da882c0	0.082280636
45	0x3d91f131	0.07126082
46	0x3e729aa0	0.23691797
47	0x3e36a893	0.17837743
48	0x3dfbcb79	0.12294669
49	0xbe665d46	-0.22496518
50	0xbecb5595	-0.3971373
51	0xbe6238db	-0.22092001
52	0xbe811862	-0.25213915
53	0x3e24eec9	0.16106714
54	0xbcf4a410	-0.029863387
55	0x3b72952d	0.0037015185
56	0x3cf12009	0.02943422
57	0xbd2fe6ea	-0.042944826
58	0x3e9bba44	0.30415547
59	0xbdb5d648	-0.088787615
60	0xbba6175a	-0.0050687017
61	0xbe82c91e	-0.25544065
62	0x3c865de4	0.016402192
63	0xbe0e02cf	-0.13868259
64	0x3da714d6	0.08158271
65	0x3b5c23f8	0.0033590775
66	0x3e0747aa	0.13210931
67	0xbd4e9406	-0.050434135
68	0xbed77880	-0.42084122
69	0xbe2845b5	-0.16432841
70	0x3eb86677	0.36015674
71	0x3d9cb08b	0.076508604
72	0x3e91a22e	0.28444046
73	0xbe126f16	-0.14300188
74	0xbe591573	-0.21199588
75	0xbe2e3d24	-0.17015511
76	0xbe16a59e	-0.14711615
77	0x3e7f3691	0.24923159
78	0x3d53af1a	0.05168066
79	0x3e98c445	0.29837242
80	0xbe2a7d1e	-0.16649291
81	0xbe3ce925	-0.18448313
82	0x3e8f5af1	0.2799907
83	0xbdb0d6f8	-0.08634752
84	0x3e011246	0.12604627
85	0xbdb88486	-0.09009652
86	0x3e3a4bd0	0.18192983
87	0xbe2d54b6	-0.16926846
88	0xbe4e29a8	-0.20133078
89	0x3d84e6b6	0.06489317
90	0x3d30caf9	0.04316232
91	0xbd651de1	-0.055936698
92	0x3d116088	0.03549245
93	0x3ea98ad2	0.33113724
94	0xbea05e3e	-0.313219
95	0xbde7c619	-0.11317081
96	0x3e606abe	0.21915719
97	0xbe0d0fae	-0.13775513
98	0xbd96df21	-0.07366777
99	0xbe429bd1	-0.19004752
100	0xbe02614d	-0.1273243
101	0x3b70c6f4	0.003673968
102	0xbcbebfc9	-0.02328481
103	0xbe2b4efc	-0.16729349
104	0xbd9ced61	-0.07662464
105	0xbdc132a4	-0.09433487
106	0xbe183e9b	-0.14867632
107	0xbe214652	-0.15749481
108	0xbe263d08	-0.16234219
109	0xbe760eb8	-0.24029052
110	0x3ebb4c47	0.36581632
111	0x3e2f45a5	0.17116411
112	0x3dacc17a	0.0843534
113	0xbebfccc2	-0.37460905
114	0xbd3aa91f	-0.045571443
115	0xbd2aaafa	-0.041666962
116	0x3cdbc686	0.026828062
117	0xbd2381e0	-0.03991878
118	0xbd68ba90	-0.056818545
119	0xbe2ca2a9	-0.16858925
120	0x3da875b7	0.08225577
121	0xbafb5542	-0.0019175189
122	0xbc38ac88	-0.011271603
123	0xbcb31d18	-0.021864459
124	0xbd798e6f	-0.06092685
125	0xbdcaded5	-0.09905783
126	0xbd4d26d5	-0.05008586
127	0xbeba554b	-0.36393198
128	0x3e931271	0.28725007
129	0xbdd0449e	-0.10169338
130	0x3e2462b0	0.16053271
131	0x3dcf9f0d	0.101377584
132	0xbe1333de	-0.14375255
133	0x3e06160d	0.13094349
134	0xbd8ab8fb	-0.067735635
135	0xbdcfe1d8	-0.10150498
136	0xbe52f2dc	-0.20600456
137	0xbe81e763	-0.25371847
138	0x3dc0ab27	0.09407645
139	0xbd7296a0	-0.05922568
140	0x3de6caeb	0.11269172
141	0xbe42eec1	-0.1903639
142	0x3e990008	0.29882836
143	0xbe47258a	-0.19447914
144	0xbc92e645	-0.017932067
145	0x3e11d361	0.14240791
146	0x3e32e460	0.1746993
147	0x3e9e8b06	0.3096544
148	0x3e774c55	0.24150212
149	0xbe67f71b	-0.22652857
150	0x3e09f09e	0.13470694
151	0xbe18aa73	-0.14908771
152	0xbe4cd0d8	-0.20001543
153	0xbe5041ad	-0.20337553
154	0x3e60301d	0.21893354
155	0xbe2d95d2	-0.16951683
156	0x3d7312dc	0.059344158
157	0x3d625a68	0.055262
158	0x3deed74b	0.116621576
159	0xbe064cb3	-0.13115196
160	0x3dd9c791	0.106337674
161	0x3c8292b2	0.01593909
162	0x3e47e5fd	0.19521327
163	0xbea202ed	-0.31642857
164	0x3e276201	0.1634598
165	0x3d47e71a	0.04880438
166	0xbe3e70f9	-0.18597783
167	0x3e972216	0.29518193
168	0x3dc48b54	0.09596887
169	0xbe04b2c8	-0.12958825
170	0xbdbd61a1	-0.09247137
171	0xbe16b50a	-0.14717498
172	0x3e2a6215	0.16638978
173	0x3cfd358a	0.030909318
174	0xbe098742	-0.13430503
175	0xbd852b1f	-0.06502365
176	0xbdf3f019	-0.11911029
177	0x3d483ae2	0.04888428
178	0x3e7851ec	0.2425
179	0xbe4a7472	-0.19770983
180	0x3e4e7e0c	0.2016527
181	0x3e02bfe2	0.1276851
182	0x3e284ba6	0.16435108
183	0xbd80c7f8	-0.06288141
184	0x3d82191f	0.06352448
185	0x3ea9a0ad	0.33130398
186	0x3d8785a7	0.06617289
187	0xbe64d4d5	-0.22346814
188	0xbd5b004e	-0.053467087
189	0x3cff4732	0.031161878
190	0xbd5f741e	-0.054554097
191	0xbe894981	-0.26813892
192	0x3d8c2d47	0.068445735
193	0x3eb9de71	0.36302522
194	0xbd1b944f	-0.037983235
195	0xbd6efa2b	-0.058344048
196	0x3e0b0ff0	0.13580298
197	0xbd55ac01	-0.05216599
198	0x3dcdaaab	0.10042318
199	0xbd3c8e23	-0.04603399
200	0xbe47f258	-0.1952604
201	0xbe3083d5	-0.1723779
202	0x3e39f5e5	0.18160208
203	0x3e6e6f24	0.23284584
204	0x3c34ee30	0.011043116
205	0xbd9f3bff	-0.07775115
206	0xbda920e9	-0.0825823
207	0xbe2c5008	-0.16827404
208	0xbd2ae9b7	-0.041726794
209	0x3e12b359	0.14326228
210	0x3e862026	0.26196402
211	0x3e25137f	0.16120718
212	0xbe962cb6	-0.29330987
213	0xbe31cd76	-0.17363533
214	0xbcd8637c	-0.026414625
215	0x3e96089e	0.2930345
216	0x3bd44331	0.0064777364
217	0xbb3f78d1	-0.00292163
218	0x3e82d22d	0.25550976
219	0xbd81e158	-0.06341809
220	0xbe24ed22	-0.16106084
221	0x3e32a369	0.17445149
222	0xbdaddd2b	-0.0848945
223	0xbde77fe5	-0.11303691
224	0xbec1558a	-0.37760574
225	0x3e07a3e4	0.13246113
226	0x3e4d9f80	0.20080376
227	0xbce2ce03	-0.027686125
228	0xbe567723	-0.20943885
229	0xbea13745	-0.3148748
230	0xbe9ff0e7	-0.3123848
231	0x3e7e8a0b	0.24857347
232	0x3dbd4f88	0.09243685
233	0x3e8081e9	0.25099114
234	0x3d699c3e	0.05703377
235	0x3d95d490	0.07315934
236	0xbd0fc910	-0.035103858
237	0xbe17f70f	-0.14840339
238	0xbd9022ad	-0.07037864
239	0xbd35ebcb	-0.044414323
240	0x3e20d6e8	0.1570698
241	0xbb40f282	-0.002944142
242	0x3d90cd07	0.07070356
243	0xbd63c7e0	-0.055610538
244	0xbd30a285	-0.04312374
245	0xbe2ed9d4	-0.17075282
246	0xbe06a6ef	-0.13149618
247	0x3e2f6f0f	0.17132209
248	0xbccb44dd	-0.02481311
249	0x3e4339a9	0.19064964
250	0xbca748eb	-0.020420512
251	0xbe0df82c	-0.13864201
252	0x3a9b24af	0.0011836494
253	0xbe0cf443	-0.13765053
254	0x3c7b7cb5	0.015349557
255	0xbe91538f	-0.28384063

encoder.net.0.bias f4 [32]
0	0xbdcb47b2	-0.09925784
1	0xbe3e12f0	-0.18561912
2	0xbebf13ad	-0.373197
3	0xbd8faf2b	-0.070158325
4	0xbebf222c	-0.3733076
5	0xbeb73d8f	-0.35789153
6	0xbdcba090	-0.09942734
7	0xbe776e5c	-0.24163193
8	0xbecf0a89	-0.40437725
9	0xbe3b22a1	-0.18274929
10	0xbdbd8e11	-0.09255613
11	0xbeb7487e	-0.35797495
12	0xbeb04f6e	-0.344356
13	0xbe900c2b	-0.28134283
14	0xbe23a09f	-0.15979241
15	0xbecc0eac	-0.39854944
16	0xbebcd668	-0.3688233
17	0x3d7f8294	0.06238039
18	0xbea7ecf0	-0.32797956
19	0xbec5bc76	-0.38620347
20	0xbe948c2f	-0.29013202
21	0x3d986f59	0.07443113
22	0xbe40e6a1	-0.18837978
23	0xbe7e65ec	-0.24843568
24	0xbeeb3a0d	-0.45942727
25	0xbe121ccb	-0.14268796
26	0xbe8cd6b3	-0.27507553
27	0xbe8bdff8	-0.27319312
28	0xbdb045cf	-0.08607065
29	0xbe3d2412	-0.18470791
30	0xbe4e0db5	-0.20122416
31	0xbe528d39	-0.20561685

encoder.net.2.weight f4 [32, 32, 3, 3]
0	0xbe0a9374	-0.13532811
1	0xbc8c4d16	-0.017126601
2	0x3e50a9c4	0.2037726
3	0x3d322663	0.04349364
4	0x3cadcca5	0.021215746
5	0x3e221e00	0.15831757
6	0xbe2d1574	-0.16902715
7	0x3da9f883	0.08299353
8	0xbe2a52f4	-0.16633207
9	0x3da35760	0.0797565
10	0x3d3ad562	0.045613654
11	0x3e562911	0.20914103
12	0xbb7a4932	-0.00381906
13	0xbd9b3824	-0.07579067
14	0x3de19691	0.110150464
15	0xbe7f19a1	-0.2491212
16	0xbcb6462e	-0.022250261
17	0x3e968b8e	0.29403347
18	0xbe4af621	-0.19820453
19	0xbd007948	-0.031365663
20	0xbe5d9367	-0.21638261
21	0xbd08b05f	-0.033371326
22	0xbe7d6169	-0.2474419
23	0x3cde8411	0.027162584
24	0xbeb19b38	-0.34688735
25	0xbe2924e0	-0.16517973
26	0xbe99d733	-0.30046996
27	0x3bab2d6d	0.005223921
28	0xbdad4e23	-0.08462169
29	0xbe86ce14	-0.263291
30	0x3e0b8a3c	0.13626951
31	0xbeb51d4b	-0.3537391
32	0xbd11a6e2	-0.035559542
33	0xbdfd6aff	-0.123739235
34	0x3d91e0fb	0.0712299
35	0x3c8ea10f	0.017410783
36	0x3e006805	0.1253968
37	0xbd96063e	-0.07325409
38	0x3dbcb5aa	0.09214337
39	0xbdbae67e	-0.09125994
40	0xbe4d51ff	-0.2005081
41	0x3cd4190d	0.025890851
42	0xbe425c88	-0.1898061
43	0x3d76eeb9	0.060286257
44	0x3ec50310	0.384789
45	0xbe21d78f	-0.15804885
46	0x3d9aeac4	0.07564309
47	0x3dc05919	0.09391994
48	0x3e9cdc4c	0.30636823
49	0xbd3bc55b	-0.04584251
50	0xbe8eb1b2	-0.27869946
51	0x3e6bf48f	0.2304251
52	0x3dc4aa68	0.09602815
53	0xbde08cbe	-0.109643444
54	0xbe698d42	-0.22807792
55	0x3c55588f	0.013021602
56	0x3dbc2807	0.09187322
57	0x3e0547e1	0.13015701
58	0x3df07ba3	0.11742332
59	0xbe784f8f	-0.24249099
60	0x3e4bc2f3	0.19898586
61	0xbe961322	-0.29311472
62	0xbda72e9c	-0.08163187
63	0xbe8f78b8	-0.2802179
64	0xbd98466f	-0.07435309
65	0xbe1288dc	-0.1431002
66	0xbe19d2a4	-0.1502176
67	0xbe98f23d	-0.29872313
68	0xbe530f2d	-0.20611258
69	0xbc0b8995	-0.008516689
70	0x3e3cfe0d	0.18456288
71	0xbebac5c4	-0.36479008
72	0x3e4f5931	0.20248868
73	0x3e002eda	0.12517872
74	0xbe977ad0	-0.29585886
75	0xbe1a0e87	-0.15044604
76	0x3e6f217f	0.23352621
77	0x3e2d76dc	0.16939873
78	0x3e2a281e	0.16616866
79	0x3d0d8daa	0.03455893
80	0xbe6678fd	-0.22507091
81	0xbe0d0643	-0.1377192
82	0x3c853d25	0.016264508
83	0x3d1c93f0	0.03822702
84	0x3dc11ff3	0.09429922
85	0x3da3d9ec	0.0800055
86	0x3e329b51	0.17442061
87	0xbd495068	-0.049148947
88	0xbc33d907	-0.010977036
89	0xbdc106b8	-0.094251096
90	0xba01a044	-0.0004944841
91	0x3c8cb1ca	0.01717462
92	0xbdea31cd	-0.1143528
93	0x3c7131a6	0.01472131
94	0x3e609ccc	0.21934813
95	0xbf131a6e	-0.57462204
96	0xbea6a7bc	-0.32549846
97	0x3cb9a559	0.022661852
98	0xbd63ef3f	-0.055648085
99	0xbe761b68	-0.24033892
100	0xbe8a8ab2	-0.2705894
101	0xbe734ab6	-0.23758969
102	0xbedd944a	-0.43277198
103	0x3c6128d7	0.013742647
104	0x3d8d7db1	0.06908739
105	0xbe023c9b	-0.12718432
106	0xbe217b88	-0.1576978
107	0xbeebcd5b	-0.4605511
108	0xbe9cacfb	-0.30600724
109	0x3d8b928f	0.06815063
110	0xbd4217df	-0.047386046
111	0xbd96009e	-0.073243365
112	0xbc41e91f	-0.011835366
113	0xbd3c7760	-0.046012282
114	0xbe6a488e	-0.2287924
115	0xba0ec31d	-0.0005445944
116	0x3e176be7	0.14787255
117	0xbe59641e	-0.21229598
118	0xbeb01830	-0.34393454
119	0xbe5a459c	-0.21315616
120	0xbecc2dd9	-0.3987873
121	0x3badaf02	0.0053004036
122	0x3c5a7c64	0.013335321
123	0xbe076166	-0.13220748
124	0xbde1f11c	-0.11032316
125	0xbf057417	-0.52130264
126	0xbb0602b4	-0.0020448389
127	0x3dede1ad	0.1161531
128	0x3dc90bd9	0.09816713
129	0xbd1ed580	-0.03877783
130	0xbd38f1cf	-0.04515248
131	0x3db32d8c	0.08748922
132	0x3caa7e49	0.02081217
133	0xbca7ab92	-0.020467553
134	0x3e45b0cb	0.19305722
135	0xbd28ebbc	-0.04124044
136	0x3cdd6b85	0.027028808
137	0xbeaa8336	-0.3330323
138	0xbde65f7c	-0.11248681
139	0xbea8d534	-0.3297516
140	0xbdfa503b	-0.12222334
141	0xbe80358e	-0.2504086
142	0xbe16f2ff	-0.14741133
143	0xbecca371	-0.39968446
144	0x3d9cb5f1	0.0765189
145	0x3d09be29	0.033628616
146	0xbd8e071d	-0.069349505
147	0x3e038602	0.12844089
148	0x3e1449ee	0.14481327
149	0xbed6b646	-0.4193594
150	0x3d4a8fde	0.04945361
151	0xbed49f9e	-0.41528028
152	0x3cb11d15	0.021620313
153	0x3d692d7b	0.05692814
154	0xbdd50407	-0.10401159
155	0x3dc59453	0.09647431
156	0x3cfa0c7c	0.030523531
157	0xbe3a15f6	-0.1817244
158	0x3db29f0c	0.08721742
159	0xbe441293	-0.1914771
160	0x3d41bc63	0.0472988
161	0x3e005baf	0.12534975
162	0xbe823b72	-0.25435978
163	0x3e0b6c4c	0.1361553
164	0xbde962b7	-0.113957815
165	0xbe288053	-0.16455202
166	0xbd04d525	-0.032429833
167	0x3e456ece	0.1928055
168	0x3d71c3dc	0.059024677
169	0xbdfece4e	-0.12441693
170	0x3c645a6d	0.013937575
171	0x3c259037	0.010105184
172	0xbdbd72ba	-0.09250398
173	0xbd39255e	-0.04520165
174	0xbc8acc5e	-0.016943153
175	0xbdd060b5	-0.101746954
176	0x3d95d6b7	0.07316344
177	0xbd686594	-0.056737497
178	0xbde40de0	-0.11135459
179	0xbe4a16c5	-0.19735248
180	0xbdc745f3	-0.09730139
181	0x3da0409b	0.078248225
182	0x3df6ffaf	0.120604865
183	0x3b9be8a3	0.004757957
184	0x3c81df00	0.015853405
185	0xbd0dd299	-0.03462467
186	0x3cd5753d	0.02605688
187	0xbec93227	-0.39296076
188	0x3d89ee06	0.067348525
189	0x3ca2373d	0.01980173
190	0xbd7aee39	-0.061262343
191	0xbe58652d	-0.21132345
192	0x3ea568b2	0.3230644
193	0xbdeb6536	-0.11493914
194	0xbda511d2	-0.080600396
195	0xbea4e133	-0.32203063
196	0x3b92fccc	0.004485702
197	0xbdff75ba	-0.124736264
198	0xbdca8cc0	-0.09890127
199	0xbd7ba3e3	-0.06143559
200	0x3d4bf8e2	0.0497979
201	0x3e240cec	0.16020554
202	0xbd223a1c	-0.0396062
203	0xbd44b730	-0.048026264
204	0x3db11423	0.08646419
205	0xbe603a1b	-0.21897165
206	0xbd81a275	-0.06329814
207	0x3cf134cf	0.029444126
208	0x3e46b2ee	0.19404194
209	0xbdd0170a	-0.10160644
210	0xbe4eb3ee	-0.20185825
211	0x3dd70caa	0.10500462
212	0xbd98a7ac	-0.07453856
213	0x3dc00be4	0.09377268
214	0x3d707407	0.058704402
215	0x3e544279	0.20728482
216	0xbe816c50	-0.25277948
217	0x3d34a0c9	0.04409865
218	0xbe2cd2f4	-0.16877347
219	0x3d82316c	0.06357083
220	0x3d7b1d26	0.061307095
221	0xbddc713a	-0.10763784
222	0x3d50a7a2	0.050941117
223	0xbe66bde5	-0.22533377
224	0xbe4c740c	-0.19966143
225	0x3ca82f9f	0.02053052
226	0xbd98b254	-0.074558884
227	0xbdb83e4a	-0.08996256
228	0x3dbe5828	0.09294158
229	0x3a7febc4	0.000976261
230	0xbc408ccf	-0.011752321
231	0x3cc7b423	0.024377888
232	0x3d9b2cff	0.07576942
233	0x3d7721e3	0.06033505
234	0x3cebf7d4	0.028804697
235	0xbe0b83a0	-0.1362443
236	0xbe313903	-0.17306904
237	0x3c1d9623	0.009618315
238	0x3d1ea639	0.03873274
239	0xbd4e4096	-0.050354563
240	0x3dfae249	0.12250192
241	0xbdae0750	-0.084974885
242	0xbdd6b471	-0.10483635
243	0xbcd1ce81	-0.025611164
244	0xbe025866	-0.12729034
245	0xbe965d6e	-0.29368156
246	0xbc5985c9	-0.013276526
247	0xbe38029d	-0.17969747
248	0xbe693c97	-0.2277702
249	0xbe322b3b	-0.17399304
250	0xbe812f73	-0.25231513
251	0xbe88aa54	-0.2669245
252	0x3d721dda	0.0591105
253	0xbcc195c5	-0.023630986
254	0xbe141533	-0.14461212
255	0xbcc2cab6	-0.0237783

encoder.net.2.bias f4 [32]
0	0xbc0494ab	-0.008092086
1	0x3dc057b8	0.09391731
2	0x3c8f3bfa	0.017484654
3	0x3d867a59	0.06566305
4	0xbd803115	-0.06259362
5	0xbd91b977	-0.07115453
6	0xbdf0cfa7	-0.117583565
7	0x3c84dfa5	0.016219923
8	0xbe28c871	-0.16482712
9	0xbbac2177	-0.0052530128
10	0x3cb73b0e	0.022367027
11	0xbb2154db	-0.0024617228
12	0xbd6ee74c	-0.05832605
13	0x3e0c5773	0.13705234
14	0x3e051bff	0.12998961
15	0xbd2f9dae	-0.042874984
16	0xbcf45b95	-0.029828826
17	0x3c5e64ad	0.013573808
18	0xbd7c361a	-0.061575033
19	0x3bae1586	0.0053126244
20	0xbd56b1ea	-0.052415766
21	0xbc907e48	-0.01763834
22	0xbcaba97a	-0.020954836
23	0x3c2e0a4b	0.010622571
24	0xbb2ff0a6	-0.0026846319
25	0x3cc1ae02	0.023642544
26	0xbd21aa43	-0.039469015
27	0x3bf24c97	0.007394384
28	0xbd96fa30	-0.07371938
29	0xbd4fdd6e	-0.05074828
30	0x3a6d57d0	0.00090539176
31	0xbd812a36	-0.06306879

encoder.net.4.weight f4 [64, 32, 3, 3]
0	0x3e655a3d	0.22397704
1	0x3d349d83	0.044095527
2	0xbd4dab84	-0.0502124
3	0xbee1d819	-0.44110182
4	0xbdc8a911	-0.09797872
5	0x3d6e535f	0.058184978
6	0xbe0c570a	-0.13705078
7	0x3e849e7c	0.25902164
8	0x3e8776d6	0.26457852
9	0xbbbd50c9	-0.0057774526
10	0xbe2b65ca	-0.16738048
11	0xbd1fe10c	-0.03903298
12	0xbe82ab97	-0.25521538
13	0x3d2a7c58	0.04162249
14	0xbe091d53	-0.13390093
15	0x3e3481cd	0.1762764
16	0x3d7313df	0.059345122
17	0xbd3933d1	-0.04521543
18	0xbe3129ba	-0.17301074
19	0xbe1e32bd	-0.15449043
20	0x3c5553d6	0.013020476
21	0xbd6034e3	-0.054737937
22	0x3e12c6bc	0.14333624
23	0x3ce99f4a	0.028518338
24	0xbd492cc6	-0.049114965
25	0xbd9e489f	-0.07728695
26	0x3c1f6f3f	0.009731113
27	0x3df0aa5e	0.11751245
28	0xbd8aee38	-0.06783718
29	0xbe194192	-0.1496642
30	0xbd95aae9	-0.07307989
31	0xbd1a206c	-0.037628576
32	0xbdd7ff76	-0.10546772
33	0xbd49e6a7	-0.049292233
34	0xbe3fcff5	-0.18731673
35	0x3c973d4f	0.018461851
36	0xbdfe84ed	-0.12427697
37	0xbec65911	-0.38739827
38	0xbeaa002c	-0.33203256
39	0x3e2410f0	0.16022086
40	0xbe1112d8	-0.14167345
41	0xbdff350b	-0.12461289
42	0xbe20c004	-0.15698248
43	0x3d148c3e	0.036266558
44	0xbdc6c7f9	-0.097061105
45	0xbd2ca44f	-0.042148884
46	0x39a611a4	0.0003167513
47	0x3c0abca2	0.008467825
48	0xbd260c44	-0.04053904
49	0x3d9ad11c	0.07559416
50	0xbca8d02b	-0.020607075
51	0x3d10c717	0.035346117
52	0x3c54c99d	0.0129875215
53	0xbcc8ed1d	-0.024527127
54	0xbc90d125	-0.017677853
55	0x3d98c39b	0.07459184
56	0xbe1064cf	-0.14100955
57	0xbd09cf47	-0.03364494
58	0xbd60e34a	-0.05490426
59	0x3da07323	0.078344606
60	0x3b3becc1	0.0028675052
61	0xbcf49519	-0.029856252
62	0xbe1ee4b4	-0.15516931
63	0x3d0e5afb	0.034754734
64	0xbe09d140	-0.13458729
65	0xbd176bad	-0.036967922
66	0x3daf2906	0.085527465
67	0xbca46a57	-0.020070238
68	0x3e20055e	0.15627047
69	0xbd839617	-0.06425112
70	0x3d6acc2b	0.057323616
71	0xbc242186	-0.010017758
72	0xbc2b8c3b	-0.010470445
73	0x3e9cfaf0	0.306602
74	0x3d3cf1e5	0.046129126
75	0x3de5b5de	0.11216329
76	0xbd576e26	-0.05259528
77	0xbda0c6cb	-0.07850417
78	0x3d8b0552	0.06788124
79	0xbd51e43e	-0.05124306
80	0xbe5100f4	-0.2041052
81	0xbd7a32f3	-0.061083745
82	0xbcc26941	-0.02373183
83	0x3e235dfe	0.15953824
84	0x3dc3e710	0.09565556
85	0xbd37c4f9	-0.044865582
86	0x3dc4d267	0.096104436
87	0xbdf605f7	-0.120128565
88	0xbdb0114f	-0.08597051
89	0xbd455bf6	-0.048183404
90	0xbd89c67b	-0.0672731
91	0xbde3ff34	-0.111326605
92	0xbe2d5b26	-0.16929302
93	0x3e10bc49	0.14134325
94	0xbdfee945	-0.124468364
95	0x3e170f90	0.1475203
96	0xbc7a391c	-0.015272405
97	0xbddc1a7a	-0.107472375
98	0x3cd80c0d	0.026372934
99	0xbe4d313d	-0.20038314
100	0x3e0905ca	0.13381115
101	0x3d54d6b8	0.051962584
102	0xbe51d781	-0.20492364
103	0xbe7f5202	-0.24933627
104	0xbe7c5041	-0.2463999
105	0xbdcf8d26	-0.10134344
106	0x3cc1a6d3	0.023639118
107	0xbdb0d7c7	-0.08634906
108	0xbe729e79	-0.23693265
109	0x3d6bfa8f	0.057612
110	0xbe92aade	-0.28645986
111	0xbd9993fa	-0.074989274
112	0xbd4a74d4	-0.049427822
113	0x3e52a3bc	0.20570272
114	0x3e4747b6	0.1946095
115	0x3cf558de	0.029949602
116	0x3e81688c	0.25275075
117	0xbe16ac7e	-0.14714238
118	0xbe810af7	-0.25203678
119	0xbecb58ec	-0.3971628
120	0x3d14a271	0.03628773
121	0xbd3b2e21	-0.04569829
122	0xbe385965	-0.18002851
123	0x3e08c6a8	0.13357031
124	0x3e22ce59	0.15899028
125	0x3e30ffe0	0.17285109
126	0x3d0e8121	0.034791116
127	0xbd988445	-0.074471034
128	0xbe8236b6	-0.25432366
129	0xbdcba57d	-0.09943674
130	0x3d32a919	0.043618295
131	0x3da83165	0.08212546
132	0xbe3d8b36	-0.18510136
133	0xbe81ed0d	-0.25376168
134	0xbe931150	-0.28724146
135	0xbe465830	-0.19369578
136	0xbe94cd40	-0.29062843
137	0xbe1bbeb3	-0.15209465
138	0xbc46b2c0	-0.012127578
139	0x3dbb91a7	0.0915864
140	0x3e38cf13	0.18047743
141	0x3dd8a533	0.10578384
142	0xbe479cea	-0.19493452
143	0xbe12a3e8	-0.14320338
144	0xbd945418	-0.07242602
145	0x3e054279	0.13013639
146	0x3ced8f2d	0.028998936
147	0xbdb73a5a	-0.089466766
148	0xbd3d78d1	-0.046257798
149	0x3dbe549f	0.09293484
150	0xbe34405c	-0.17602676
151	0xbe199b8a	-0.1500074
152	0xbdcbfade	-0.099599585
153	0xbb5a649b	-0.0033324126
154	0x3d08cf18	0.033400625
155	0xbde9a354	-0.114081055
156	0x3da0d7aa	0.07853635
157	0xbd2cd16d	-0.04219191
158	0xbef4f13c	-0.47840297
159	0x3df43a81	0.11925221
160	0x3df71f42	0.12066509
161	0x3e1dc5b0	0.15407443
162	0x3e663674	0.2248171
163	0x3a9ed640	0.0012118295
164	0x3d1fafd1	0.03898603
165	0x3ce8ecc1	0.028433206
166	0xbea6a4a0	-0.32547474
167	0xbd84b060	-0.06478953
168	0xbe5ea176	-0.2174128
169	0x3d806d89	0.06270892
170	0xbd470308	-0.048586875
171	0x3e866bec	0.26254213
172	0xbd8ce48e	-0.06879531
173	0xbe483f01	-0.19555284
174	0xbdd8499d	-0.105609156
175	0xbdff4020	-0.12463403
176	0xbe6e128c	-0.23249263
177	0x3e4ec778	0.20193279
178	0xbdaee766	-0.085402295
179	0xbe97cc61	-0.29648116
180	0x3caddcf8	0.02122353
181	0xbc94dfe4	-0.018173166
182	0xbb895cff	-0.004191994
183	0x3d0b762d	0.034048248
184	0x3d022b5b	0.03177963
185	0xbd43d0a5	-0.0478064
186	0xbd3f65b2	-0.046727844
187	0x3c8b1b39	0.016980754
188	0x3c22b401	0.009930612
189	0xbc9144d3	-0.017733013
190	0x3e3c2464	0.18373257
191	0x3e79d854	0.24398929
192	0xbe086644	-0.13320261
193	0xbe58bf85	-0.21166809
194	0x3d962650	0.07331526
195	0xbe611573	-0.21980838
196	0xbe3adb70	-0.18247771
197	0x3ea12ab9	0.31477907
198	0xbca30549	-0.019899981
199	0x3dde938d	0.10867987
200	0x3e41ef36	0.18938908
201	0xbe274781	-0.1633587
202	0xbe8afa0b	-0.27143893
203	0x3e220aaa	0.1582438
204	0x3d9a8b8f	0.0754615
205	0xbd9d6e14	-0.07687011
206	0xbe452ffa	-0.19256583
207	0xbdfb9e96	-0.12286107
208	0xbc1440ee	-0.009048684
209	0xbe109e46	-0.14122877
210	0x3e161ccd	0.14659424
211	0xbd943fb1	-0.07238711
212	0xbe072fa9	-0.13201775
213	0xbe65cd5b	-0.22441618
214	0xbe63436e	-0.22193691
215	0xbe913bf9	-0.28366068
216	0x3e20fb3d	0.1572084
217	0xbed205ed	-0.41020146
218	0xbee7eb62	-0.4529677
219	0xbdc0c56c	-0.09412655
220	0x3d954a61	0.07289577
221	0x3c8a15f1	0.016856166
222	0xbd65fe71	-0.056150857
223	0x3e37243f	0.1788492
224	0x3de4b16c	0.11166653
225	0xbd9875f9	-0.074443765
226	0xbd15618a	-0.036469974
227	0xbe51092c	-0.20413655
228	0xbe549084	-0.20758253
229	0xbd413645	-0.047170896
230	0xbe62d853	-0.22152834
231	0xbc177c05	-0.009245877
232	0xbd8a29a8	-0.067462265
233	0xbd181c24	-0.037136212
234	0x3d874802	0.06605531
235	0x3d7c64d5	0.0616196
236	0x3ce151ab	0.027504763
237	0x3d944cf6	0.07241242
238	0x3d031e5e	0.032011382
239	0x3d2ba4e3	0.041905295
240	0xbbf6fd31	-0.007537507
241	0x3cff13bb	0.031137338
242	0xbca6964e	-0.020335343
243	0xbe9ff70d	-0.31243172
244	0x3c59ac6b	0.013285737
245	0x3bcec73e	0.0063103726
246	0x3df5387e	0.11973666
247	0x3e762e32	0.2404106
248	0x3dbeb9f9	0.09312815
249	0xbd12ecc0	-0.035870314
250	0x3d81f388	0.06345278
251	0xbe6cd413	-0.23127775
252	0xbc328630	-0.010896251
253	0xbce5d6de	-0.028056558
254	0x3d10cfb6	0.03535434
255	0x3cc2f7ed	0.02379986

encoder.net.4.bias f4 [64]
0	0xbd12d1db	-0.035844665
1	0xbc230776	-0.009950509
2	0x3d4d7df7	0.050168958
3	0xbc97a926	-0.018513273
4	0x3e347af1	0.17625023
5	0x3dd768f5	0.10518066
6	0x3c720bdc	0.014773335
7	0x3cf1903b	0.02948772
8	0xbd4f2233	-0.050569724
9	0x3cfde02a	0.030990679
10	0x3d9d1ae6	0.07671146
11	0xbdeaa6d2	-0.114576
12	0xbd87d795	-0.06632916
13	0xbd9c608c	-0.07635602
14	0x3d865bc9	0.065604754
15	0xbdd82198	-0.105532825
16	0xbdb64c70	-0.08901298
17	0x3b7e33f9	0.0038788302
18	0xbd81f2c6	-0.063451335
19	0xbe0b9d7c	-0.13634294
20	0x3d86c0df	0.06579756
21	0x3d4edc97	0.05050334
22	0x3bb5d570	0.0055491254
23	0xbdb1fda1	-0.08690954
24	0xbdc89028	-0.097931206
25	0x3c9706ea	0.018435914
26	0x3d010901	0.031502727
27	0xbda162a7	-0.078801446
28	0x3d7ecf92	0.062209673
29	0xbd0d5525	-0.03450503
30	0xbd1a4222	-0.037660725
31	0x3bb1820b	0.0054171137
32	0x3d423e07	0.047422435
33	0x3d813149	0.063082285
34	0x3e332972	0.17496279
35	0x3d1fb83d	0.038994063
36	0xbdf1a48d	-0.11798964
37	0xbda9fd62	-0.08300282
38	0x3cb5eaf6	0.022206765
39	0x3e5be789	0.21475042
40	0x3c54793f	0.01296836
41	0x3c6a3408	0.014294632
42	0x3df8b6d7	0.12144249
43	0x3de62032	0.112366095
44	0x3d895c22	0.06707026
45	0x3e7859ec	0.24253052
46	0x3d396d90	0.045270503
47	0xbdbb3033	-0.09140053
48	0x3d0aff7c	0.033935055
49	0x3db86c52	0.090050355
50	0x3ca3c3b1	0.019990774
51	0xbd8a9a3f	-0.06767701
52	0xbe12efd6	-0.14349303
53	0x3e428bf9	0.18998708
54	0xbcfeed8d	-0.031119132
55	0x3de2a44a	0.11066492
56	0x3d99acb0	0.07503641
57	0xbe1cf364	-0.15327221
58	0x3bb3a72c	0.005482575
59	0x3d7fd41d	0.062458146
60	0x3e0b6a58	0.13614786
61	0xbd9ac46e	-0.07556997
62	0x3e1f3a91	0.15549685
63	0x3df6cad3	0.120504044

encoder.net.6.weight f4 [64, 64, 3, 3]
0	0x3e3f8b11	0.18705393
1	0x3e9163d1	0.28396466
2	0xbe205148	-0.15656006
3	0xbe4c0f95	-0.19927819
4	0x3dadaf88	0.084807456
5	0xbdfe9f93	-0.1243278
6	0xbb8cd587	-0.0042979154
7	0xbd510d84	-0.05103828
8	0x3dd79098	0.10525626
9	0xbd248572	-0.040166326
10	0x3c874f47	0.016517295
11	0x3c9dc8fd	0.019260878
12	0xbd12a23b	-0.035799246
13	0x3ceaf0ac	0.028679214
14	0x3ba98c1b	0.0051741726
15	0xbd4449fc	-0.04792212
16	0xbbd9721c	-0.0066359174
17	0x3b5aa3f1	0.0033361877
18	0x3e45a957	0.1930288
19	0x3cc75557	0.024332685
20	0x3e32186b	0.17392127
21	0xbe50130f	-0.2031977
22	0xbd1cca04	-0.038278595
23	0xbf10a0cf	-0.56495374
24	0xbe25f20f	-0.1620562
25	0xbd30db5d	-0.04317795
26	0xbe7afe3b	-0.24511044
27	0xbd086d68	-0.033307463
28	0x3d164cec	0.036694452
29	0xbd31a387	-0.043368842
30	0xbd410020	-0.04711926
31	0x3c0a5aea	0.008444527
32	0xbd833212	-0.064060345
33	0xbc9dad05	-0.019247541
34	0x3d1411d3	0.03614981
35	0xbd490e4a	-0.049085893
36	0x3e8e77ad	0.2782568
37	0xbe98e8c8	-0.29865098
38	0xbe8799c5	-0.26484504
39	0x3d634006	0.05548098
40	0x3d2ad9b7	0.041711535
41	0x3ba991bd	0.005174844
42	0x3e488db7	0.1958531
43	0x3e5d4a72	0.2161043
44	0x3e465b21	0.193707
45	0xbe09b62d	-0.13448401
46	0xbe54f17b	-0.20795242
47	0xbe118605	-0.1421128
48	0xbde76170	-0.112978816
49	0x3df1e72b	0.1181167
50	0xbc903615	-0.017603913
51	0x3dbda1de	0.09259389
52	0x3e3c1576	0.18367562
53	0x3e7d0083	0.24707226
54	0xbe23a92c	-0.15982503
55	0x3b6f3b91	0.003650401
56	0x3dc98ed8	0.098416984
57	0x3db3dfb2	0.08782901
58	0xbc8bbcf0	-0.017057866
59	0xbe4d2252	-0.20032623
60	0x3e4fbf23	0.20287757
61	0x3b971844	0.004611047
62	0x3e5d7ed4	0.21630412
63	0x3e064bce	0.13114855
64	0x3bc3fe04	0.0059812088
65	0xbceed417	-0.029153867
66	0x3e7512fb	0.23933022
67	0x3e410d21	0.18852665
68	0x3e14ea32	0.14542463
69	0x3c69532e	0.014241023
70	0x3e7ca5be	0.246726
71	0x3e4cb5a4	0.19991165
72	0xbce6a2e3	-0.028153842
73	0xbc63e333	-0.013909149
74	0x3cc683bc	0.024232738
75	0xbb0c4d3d	-0.0021408342
76	0x3d068292	0.032839365
77	0x3cae3de7	0.021269752
78	0xbd7215b4	-0.05910273
79	0x3c042e84	0.008067731
80	0x3d825ec2	0.0636573
81	0xbe55ad4e	-0.20866892
82	0xbef4b4f2	-0.477943
83	0xbea1c4f1	-0.31595567
84	0x3dbc6c1a	0.09200306
85	0xbdfe0fb2	-0.124053374
86	0xbd41baba	-0.047297217
87	0xbd3195cf	-0.04335576
88	0xbd9f16e5	-0.07768039
89	0x3dff2770	0.12458694
90	0xbcba7ef6	-0.022765618
91	0x3e4b1867	0.19833528
92	0xbe0b854d	-0.13625069
93	0xbee9678a	-0.45586807
94	0xbd1975fc	-0.037466034
95	0xbdbe7b58	-0.0930087
96	0xbba95407	-0.0051674875
97	0x3d974706	0.073865935
98	0x3dbc13e2	0.0918348
99	0x3d452364	0.048129454
100	0xbe9fe50c	-0.31229436
101	0xbe713908	-0.23556912
102	0xbc184a4a	-0.009295056
103	0xbe88ebbb	-0.26742348
104	0xbe2bd8c2	-0.16781905
105	0x3e49d751	0.19711043
106	0xbd56d532	-0.052449413
107	0x3e1a048a	0.15040794
108	0xbcea0e66	-0.028571319
109	0xbd7f7a2b	-0.062372368
110	0xbd93e061	-0.07220531
111	0x3da743c3	0.081672214
112	0xbd4ba7e5	-0.049720664
113	0x3d54b34a	0.051928796
114	0x3d1a6234	0.03769131
115	0xbd12bf3e	-0.035826914
116	0x3d8f4bc0	0.0699687
117	0xbd927d01	-0.07152749
118	0xbed859e9	-0.42256096
119	0xbe779152	-0.24176529
120	0xbe3e85ae	-0.18605682
121	0xbdeef234	-0.1166729
122	0x3e2f0c7e	0.17094609
123	0xbd338f9a	-0.04383812
124	0x3e18543d	0.14875884
125	0xbc864840	-0.016391873
126	0xbd9b0353	-0.075689934
127	0x3cc77c55	0.024351278
128	0xbd4d11b7	-0.050065722
129	0x3da51461	0.080605276
130	0x3de4be9f	0.111691706
131	0xbe742a48	-0.23844254
132	0xbe2b9e19	-0.16759528
133	0x3e1db417	0.1540073
134	0xbe0fb49e	-0.14033744
135	0x3d8e5702	0.06950189
136	0xbdd92024	-0.106018335
137	0xbebd0e5a	-0.36925012
138	0x3c06ba58	0.008223139
139	0x3d3d1203	0.046159755
140	0xbdc034bf	-0.093850605
141	0xbbd10a8e	-0.006379432
142	0xbd0976b4	-0.03356047
143	0xbe9c16f4	-0.30486262
144	0xbe8a5421	-0.2701731
145	0x3d5231c4	0.05131699
146	0xbd837232	-0.064182654
147	0xb8bfd16e	-9.146599e-05
148	0xbe6a0121	-0.22851993
149	0x3d465ff5	0.048431356
150	0xbd9cfbcb	-0.07665213
151	0xbe50348d	-0.20332547
152	0xbc155456	-0.009114346
153	0x39bec6d6	0.00036387768
154	0xbc9f85f4	-0.019473054
155	0x3ac5dc21	0.0015095511
156	0xbc963321	-0.018334927
157	0xbb44403d	-0.0029945516
158	0xbc8d1d7b	-0.017225971
159	0xbd823477	-0.06357663
160	0x3c7d693c	0.015466984
161	0xbd383d63	-0.044980418
162	0x3c443758	0.011976086
163	0xbd45c35d	-0.048282016
164	0x3d081bb2	0.033229537
165	0xbcf7caee	-0.030248132
166	0x3db4dd25	0.088312425
167	0x3d45f9ed	0.04833405
168	0x3bad5d1d	0.005290641
169	0xbacebbe8	-0.0015772553
170	0xbd847e68	-0.064694226
171	0xbe822735	-0.25420538
172	0x3dfa2f22	0.12216021
173	0x3e7b4add	0.24540277
174	0xbc167c8d	-0.009184969
175	0x3e660906	0.2246438
176	0x3e7ea520	0.24867678
177	0xbe94d322	-0.29067332
178	0x3ddd8288	0.108159125
179	0xbc49a3be	-0.012307106
180	0xbe05330a	-0.13007751
181	0xbe730b0e	-0.23734686
182	0xbdc27717	-0.09495371
183	0xbc8c36e7	-0.017116023
184	0x3da3874c	0.0798479
185	0xbe67fadc	-0.22654289
186	0x3da7dfdd	0.081969954
187	0xbd66ded7	-0.05636486
188	0x3c3a0b86	0.011355286
189	0xbdd4a24f	-0.103825204
190	0xbd087721	-0.033316735
191	0xbf2356e6	-0.6380447
192	0x3e407bf8	0.1879729
193	0xbda311fd	-0.07962415
194	0xbd64a219	-0.05581865
195	0xbd7f2159	-0.062287662
196	0xbb1e9ada	-0.0024201185
197	0x3d12712e	0.035752468
198	0xbdd760b9	-0.10516495
199	0xbed32f49	-0.41247013
200	0xbe6587c0	-0.22415066
201	0x3e3cd293	0.18439703
202	0xbe93e38d	-0.28884545
203	0x3e2b74f6	0.16743836
204	0x3d91a405	0.07111362
205	0x3d80f53e	0.06296776
206	0xbe124190	-0.14282823
207	0xbe6929f0	-0.22769904
208	0xbec412f2	-0.38295704
209	0xbdab148c	-0.083535284
210	0x3ddb9eb0	0.107236266
211	0x3e345650	0.1761105
212	0x3da4a9bb	0.08040186
213	0xbe85dfbf	-0.26147267
214	0x3d7ee275	0.062227685
215	0x3d8f5672	0.0699891
216	0x3c13998e	0.009008778
217	0xbcab79f5	-0.020932177
218	0x3c43f721	0.011960776
219	0x3c731922	0.014837535
220	0x3c0ed591	0.00871791
221	0x3b9a096c	0.00470083
222	0xbceb5f13	-0.028731858
223	0x3ccb9f99	0.024856376
224	0x3d11418d	0.035462905
225	0xbe0fef17	-0.1405605
226	0xbeb6d265	-0.35707393
227	0xbe867f4f	-0.26269004
228	0x3deaa3b8	0.11457008
229	0x3da06de0	0.07833457
230	0x3dc39247	0.095493846
231	0xbf0575f2	-0.52133095
232	0xbef70fad	-0.48254147
233	0x3c49657d	0.012292263
234	0x3e6b724c	0.2299282
235	0x3e6931b9	0.22772874
236	0xbd0c0b30	-0.034190357
237	0xbdda7df4	-0.10668555
238	0xbe2dcc67	-0.16972505
239	0x3e63960b	0.22225206
240	0x3d83b4a5	0.064309396
241	0x3eb6f10f	0.35730788
242	0x3e6ccf1a	0.23125878
243	0xbe9e97db	-0.30975232
244	0xbdb54d05	-0.08852581
245	0x3e46c49a	0.19410935
246	0xbe8cbfad	-0.27489987
247	0xb929caf4	-0.00016192702
248	0xbe8409be	-0.25788683
249	0xbec6c484	-0.38821805
250	0x3bac4894	0.0052576754
251	0xbe0caa0e	-0.13736746
252	0x3de1dacc	0.1102806
253	0xbf18567b	-0.5950696
254	0xbde69dd3	-0.11260571
255	0x3ea8618d	0.32886925

encoder.net.6.bias f4 [64]
0	0x3cc6a08c	0.024246477
1	0x3e0c5c60	0.13707113
2	0xbe3696bc	-0.17830938
3	0x3cefd4a0	0.029276192
4	0xbc123dfb	-0.00892591
5	0x3e417e13	0.1889575
6	0xbd8b7103	-0.06808665
7	0x3ceb6356	0.02873389
8	0x3e9fc1e0	0.31202602
9	0xbdc11eb2	-0.09429683
10	0xbd95149f	-0.07279324
11	0x3b628c9c	0.0034568673
12	0x3daed214	0.08536163
13	0xbd8d240d	-0.06891642
14	0x3e5d8b28	0.21635115
15	0xbc4b9a91	-0.012426988
16	0x3de32388	0.110907614
17	0x3df937b5	0.121688284
18	0x3e1fa3fd	0.155899
19	0xbc982141	-0.018570544
20	0x3e6af769	0.22945942
21	0xbda629de	-0.08113454
22	0xbd7de638	-0.06198713
23	0x3e62f5da	0.22164097
24	0xbd274e37	-0.040846076
25	0xbdd6f758	-0.10496396
26	0x3d332e7e	0.04374551
27	0x3e321aef	0.17393087
28	0x3e8b0026	0.2714855
29	0x3e35d4a9	0.17756905
30	0xbdb4087c	-0.08790681
31	0xbe01262e	-0.1261222
32	0x3dff4361	0.124640234
33	0xbd11366e	-0.0354523
34	0xbd83d84a	-0.06437738
35	0xbb9ece6f	-0.004846386
36	0x3e9738c6	0.29535502
37	0x3c615487	0.013753063
38	0xbd8aaaad	-0.06770835
39	0x3e06f78d	0.1318037
40	0xbd9191a9	-0.071078606
41	0x3e4ef0c6	0.20209035
42	0xbd3eb77e	-0.04656171
43	0x3d20a99e	0.03922426
44	0x3e3e30ae	0.18573257
45	0xbd8f72c4	-0.07004312
46	0xbd8ba849	-0.06819207
47	0x3d2f9565	0.042867083
48	0xbde27022	-0.11056544
49	0x3dd4b81a	0.10386677
50	0xbdcada28	-0.09904891
51	0x3e0723b1	0.13197209
52	0x3d82c6c9	0.063855715
53	0x3e5e0abe	0.21683785
54	0xbc3403ae	-0.010987205
55	0xbd112fea	-0.035446085
56	0xbd9bc8b3	-0.0760664
57	0x3d8619af	0.065478675
58	0x3d5606e2	0.052252658
59	0xbdb23852	-0.087021485
60	0xbd6476ba	-0.05577729
61	0xbdcc64df	-0.09980177
62	0x3dc0103f	0.09378099
63	0x3ea2fadb	0.31832013

encoder.net.8.weight f4 [64, 64, 3, 3]
0	0x3d3e4078	0.0464482
1	0x3e4b3ac8	0.19846642
2	0xbd4330c7	-0.04765394
3	0xbd28b583	-0.041188728
4	0xbea88666	-0.32915038
5	0xbe747fb9	-0.23876847
6	0x3d52685f	0.051369067
7	0xbe85556c	-0.26041734
8	0x3b8be8b9	0.004269686
9	0x3e1680f0	0.14697623
10	0xbd7640ef	-0.06012052
11	0xbec95652	-0.3932367
12	0x3e3e7378	0.18598735
13	0xbe870384	-0.2636987
14	0xbd9dba18	-0.0770151
15	0xbb16d9cb	-0.0023017998
16	0x3d81e7c5	0.06343035
17	0x3d99984b	0.07499751
18	0x3e3fdcc3	0.18736558
19	0xbda558ab	-0.08073553
20	0x3e8347e2	0.2564078
21	0xbd7bbfae	-0.061462097
22	0xbd98bc81	-0.07457829
23	0xbdacb616	-0.08433168
24	0xbecae94a	-0.3963111
25	0x3d82391e	0.063585505
26	0x3d8e8abf	0.069600575
27	0x3c670db5	0.014102389
28	0x3e3135f9	0.17305745
29	0xbe82dcd5	-0.25559106
30	0x3e09818d	0.13428326
31	0x3d3536b9	0.04424164
32	0xbd749956	-0.059716545
33	0xbe161356	-0.14655814
34	0x3be94435	0.0071187266
35	0x3d9d28bf	0.07673787
36	0xbd710931	-0.058846656
37	0x3e113b48	0.1418277
38	0x3e898e20	0.26866245
39	0x3c3c1a77	0.011480919
40	0xbe44d320	-0.19221163
41	0xbe5bca6f	-0.21463941
42	0x3e12e934	0.14346772
43	0xbe20eb66	-0.15714797
44	0xbdbb18f5	-0.091356196
45	0x3e3cbeee	0.18432209
46	0x3e1e063c	0.15432066
47	0x3d917f0d	0.07104311
48	0x3d2ae18c	0.041719005
49	0xbd2cceda	-0.042189457
50	0x3b06c91d	0.002056665
51	0x3db163fd	0.086616494
52	0xbe05cd83	-0.13066678
53	0x3e5bda14	0.21469909
54	0xbdbbe888	-0.09175211
55	0x3d144693	0.036200117
56	0x3c649d69	0.013953545
57	0x3c990df6	0.018683415
58	0x3d9596f0	0.0730418
59	0xbdc6bb26	-0.097036645
60	0x3d1fb9d9	0.038995598
61	0x3cb938ee	0.022610154
62	0xbd225ca6	-0.039639138
63	0x3dc3cea3	0.09560897
64	0xbc4d35ad	-0.012525004
65	0xbdb73ae3	-0.089467786
66	0xbe926a6d	-0.2859682
67	0xbd28bd41	-0.04119611
68	0xbdc40da0	-0.09572911
69	0xbe070817	-0.1318668
70	0x3e2212a7	0.15827428
71	0xbdb3909a	-0.08767815
72	0xbd663556	-0.05620321
73	0xbe06eceb	-0.13176315
74	0xbee1842d	-0.44046155
75	0xbe111de3	-0.14171557
76	0x3c7b1f4d	0.015327287
77	0xbdb57044	-0.088593036
78	0x3d04e0da	0.032440998
79	0x3d7a426b	0.061098497
80	0xbba514b8	-0.0050378703
81	0xbd2ffd21	-0.042966012
82	0xbcdfadc5	-0.02730454
83	0xbd2d4714	-0.042304114
84	0xbd1034cf	-0.035206612
85	0xbccb1e05	-0.024794588
86	0x3c4f2565	0.012643193
87	0xbc473c24	-0.012160335
88	0x3bf510a7	0.0074787918
89	0x3cf23a8e	0.029568937
90	0xbc422a98	-0.011850975
91	0xbb781df4	-0.003785965
92	0xbcc3ebfe	-0.02391624
93	0xbc795b19	-0.015219473
94	0xbd0b91ae	-0.034074478
95	0xbd113d14	-0.03545864
96	0xbd246527	-0.04013553
97	0x3c9c7a3f	0.01910126
98	0xbcc87438	-0.02446948
99	0xbdc7d6da	-0.097577766
100	0x3e284c8b	0.16435449
101	0xbe381481	-0.17976572
102	0x3de3b1f8	0.11117929
103	0x3d47393b	0.048638564
104	0xbd6f3c2f	-0.058407005
105	0x3a24d777	0.000628821
106	0xbd65c954	-0.056100205
107	0x3b23db73	0.0025002628
108	0xbdd624df	-0.10456251
109	0xbe29ccbb	-0.16582005
110	0x3e17b014	0.14813262
111	0xbdc54e60	-0.096340895
112	0xbd5cd2ae	-0.053911857
113	0x3cd1e5e7	0.025622321
114	0xbe25205d	-0.16125627
115	0xbd648b22	-0.05579675
116	0xbdf687db	-0.12037631
117	0xbe39030e	-0.18067572
118	0xbd0707b1	-0.03296632
119	0xbe7c86e2	-0.24660829
120	0x3e7150fc	0.2356605
121	0x3d701c32	0.05862064
122	0xbe0b8261	-0.13623954
123	0xbe40a988	-0.18814671
124	0xbaec574e	-0.001803139
125	0xbcb6caf6	-0.022313576
126	0xbe98d4b1	-0.2984977
127	0x3e187db5	0.14891703
128	0x3c9f756c	0.01946517
129	0xbc6cc94a	-0.014452288
130	0xbc9d9983	-0.01923824
131	0xbdd60a5a	-0.10451193
132	0xbde614dd	-0.11234448
133	0xbdb595f3	-0.08866491
134	0xbe830427	-0.25589105
135	0xbe8678b1	-0.26263955
136	0xbe612d04	-0.21989828
137	0xbd0f721e	-0.03502094
138	0x3d898d22	0.06716372
139	0xbdb3f28c	-0.087864965
140	0xbbbb0a14	-0.0057079885
141	0x3e61cacc	0.22050017
142	0xbcb15054	-0.021644749
143	0x3e2ec99f	0.170691
144	0xbc3dc4a3	-0.011582526
145	0x3cf8c6cf	0.030368237
146	0xbdc4707b	-0.095917664
147	0xbda1e5d7	-0.079051666
148	0x3db0b92c	0.08629069
149	0xbd7620a5	-0.060089726
150	0xbe528af3	-0.20560817
151	0xbb6e1141	-0.0036326202
152	0xbd27370c	-0.04082398
153	0x3d66bef7	0.056334462
154	0xbe187ce3	-0.1489139
155	0xbe033405	-0.12812813
156	0xbd8f4935	-0.06996385
157	0xbd1aba58	-0.037775367
158	0xbe59aadd	-0.21256585
159	0x3e3a45b1	0.18190648
160	0xbca27e54	-0.019835629
161	0xbe8013fe	-0.25015253
162	0x3d4571eb	0.048204344
163	0x3e4f4386	0.20240602
164	0xbe77042c	-0.24122685
165	0x3e635e15	0.22203858
166	0x3ea5869c	0.3232926
167	0x3e502916	0.20328173
168	0xbe78de3c	-0.24303526
169	0xbf31b528	-0.6941705
170	0xbe93b896	-0.28851765
171	0x3d04a9e5	0.032388587
172	0xbe434dc8	-0.1907264
173	0xbe71741d	-0.2357945
174	0x3b99433f	0.004677206
175	0x3d1ae16f	0.037812646
176	0xbe76eb61	-0.24113227
177	0xbe62a2df	-0.22132443
178	0xbd582f65	-0.052779574
179	0x3dd5c221	0.10437418
180	0xbe15f768	-0.14645159
181	0x3e77ad94	0.24187309
182	0x3d4564ce	0.048191838
183	0x3bce6b24	0.0062993933
184	0x3de64c0a	0.11244972
185	0x3dcf33a2	0.1011727
186	0xbe95e110	-0.29273272
187	0xbe2feab3	-0.17179374
188	0x3dd9e602	0.10639574
189	0x3d103607	0.035207774
190	0x3cdf032c	0.027223192
191	0xbd0733ee	-0.03300851
192	0xbd223d8a	-0.03960947
193	0x3c814d27	0.01578386
194	0xbb77848a	-0.0037768208
195	0xbca4786c	-0.020076953
196	0x3c01602e	0.007896466
197	0xbd08e73a	-0.03342364
198	0x3b68d24e	0.0035525742
199	0x3c05e7ed	0.008172971
200	0x3cae246d	0.021257604
201	0xbc8e6902	-0.017384056
202	0x3bd12fd6	0.0063838763
203	0xbb99bc88	-0.004691664
204	0x3d185b68	0.037196547
205	0xbd0c4056	-0.034241043
206	0xbc3dc758	-0.011583172
207	0x3d020896	0.03174647
208	0x3d804dcb	0.06264838
209	0xbe6cfc05	-0.23143013
210	0x3e04fd1f	0.12987183
211	0x3d9f2497	0.07770651
212	0x3df52364	0.11969641
213	0xbdb6c733	-0.08924713
214	0xbee5ab26	-0.44857138
215	0xbe65a5c6	-0.22426519
216	0xbca88d0a	-0.020575065
217	0xbc8085fe	-0.015688892
218	0x3cb6d78c	0.022319578
219	0xbd03f363	-0.032214534
220	0xbc0aa8b1	-0.008463071
221	0xbdaa4c70	-0.083153605
222	0xbc6c7c1c	-0.014433887
223	0xbbfbf268	-0.007688809
224	0xbc989ee6	-0.018630456
225	0x3ce8cc32	0.02841768
226	0xbcf7ae3f	-0.030234454
227	0xbc8ceac8	-0.017201796
228	0xbcb5cb61	-0.022191705
229	0xbd8240c9	-0.06360013
230	0x3d6bbc45	0.057552595
231	0x3d11a453	0.035557102
232	0xbcf0f974	-0.029415824
233	0xbca8da7d	-0.020611996
234	0x3d98b14d	0.074556924
235	0x3e01e28c	0.12684077
236	0x3d0edfb9	0.034881327
237	0xbe1e787c	-0.15475649
238	0xbe125d9f	-0.14293526
239	0xbd82b0d9	-0.06381387
240	0xbdec1739	-0.11527867
241	0xbcf94858	-0.030430004
242	0x3d06c953	0.03290684
243	0xbd8c67ac	-0.06855711
244	0xbe8843ba	-0.2661417
245	0xbd1ae1e2	-0.037813075
246	0xbc960d72	-0.018316958
247	0xbe8c0d22	-0.2735377
248	0x3dc284df	0.094979994
249	0xbdcfd487	-0.10147958
250	0xbdb77283	-0.08957388
251	0xbcbfce17	-0.023413701
252	0xbe2fb94b	-0.17160527
253	0xbeb272b1	-0.34853128
254	0x3e8807db	0.26568493
255	0xbecbaf80	-0.39782333

encoder.net.8.bias f4 [64]
0	0xbce276d2	-0.027644549
1	0xbdc94294	-0.09827152
2	0xbea49082	-0.321415
3	0x3ea9c9ff	0.33161923
4	0xbd2d4502	-0.04230214
5	0x3e906e64	0.2820922
6	0x3dbb1da8	0.09136516
7	0xbd3c6910	-0.045998633
8	0xbd856366	-0.06513099
9	0x3e5d555c	0.21614593
10	0xbd1bf6f7	-0.03807732
11	0x3e3d503d	0.1848764
12	0x3e87df19	0.26537398
13	0x3d678a89	0.0565286
14	0x3dbbbf82	0.091673866
15	0x3dd82781	0.1055441
16	0xbd64fb0a	-0.055903472
17	0xbd5acbeb	-0.053417128
18	0x3df55be8	0.1198042
19	0xbdb496eb	-0.08817848
20	0xbbc4625b	-0.00599317
21	0xbdc86182	-0.09784223
22	0xbc939df7	-0.01801966
23	0xbe7151e7	-0.235664
24	0xbe2198c5	-0.15780933
25	0xbdbd54a5	-0.0924466
26	0xbd89994c	-0.06718692
27	0xbda5d211	-0.080967076
28	0xbcf87799	-0.030330466
29	0x3db7f397	0.08982008
30	0x3e898eeb	0.2686685
31	0xbd546f60	-0.051864028
32	0x3e2da63e	0.16957948
33	0x3e1208c3	0.14261155
34	0x3d6dc37f	0.058047768
35	0xbbac987f	-0.0052672024
36	0x3e478737	0.19485174
37	0x3e3a7f7d	0.18212695
38	0x3e2f7dd8	0.1713785
39	0x3e506e7f	0.20354651
40	0x3b6643af	0.0035135557
41	0x3e26c883	0.16287427
42	0xbd86d708	-0.06583983
43	0xbdb5d4d2	-0.08878483
44	0x3e8c60bd	0.27417555
45	0xbe8efe55	-0.27928415
46	0x3e114634	0.14186937
47	0xbe87a8c8	-0.26495957
48	0xbd3c57b5	-0.04598208
49	0x3e99d4b8	0.30045104
50	0x3ec9184c	0.3927635
51	0x3af1b4b6	0.0018440697
52	0xbd6281f7	-0.055299725
53	0x3e006521	0.12538578
54	0xbd925cba	-0.071465924
55	0xbdde547c	-0.10855958
56	0x3ea5a29d	0.32350627
57	0x3e4619ea	0.19345823
58	0x3e968448	0.29397798
59	0xbc5f6ed5	-0.013637264
60	0x3e857057	0.2606227
61	0x3e5535f8	0.20821369
62	0xbd735fc8	-0.059417516
63	0xbbc43550	-0.0059878007

encoder.fc_mean.weight f4 [2, 1024]
0	0x3cda253e	0.026629087
1	0xbc1e8698	-0.009675644
2	0x3b6434e9	0.0034821576
3	0xbc579995	-0.013159175
4	0xbc0513ed	-0.008122426
5	0xbcb11b2d	-0.021619404
6	0x3d4e7f0a	0.050414123
7	0xbcd0ed7b	-0.025503865
8	0x3bbe9afe	0.0058168164
9	0x3d563102	0.05229283
10	0x3d89803c	0.06713912
11	0xbe028eca	-0.12749782
12	0xbc1771d6	-0.009243449
13	0x3d0eb150	0.034837067
14	0x3dbe29d6	0.09285323
15	0x3bbd7ff2	0.0057830745
16	0xbcad3509	-0.021143453
17	0x3cd3c415	0.025850335
18	0x3b807b6b	0.0039209626
19	0xbad0c913	-0.0015929065
20	0xbba0b226	-0.0049040494
21	0x3c8df4f1	0.017328711
22	0xb9639f72	-0.00021707805
23	0x3cd0fa5a	0.025510002
24	0x3a2edf98	0.00066708913
25	0xbc0d450c	-0.008622419
26	0xbd2dde7b	-0.042448502
27	0xbc011b32	-0.007880019
28	0x3c5a75da	0.013333762
29	0xbce6e15e	-0.028183635
30	0x3cabbc66	0.020963859
31	0xba1a178d	-0.0005878143
32	0xbd7f0889	-0.062264
33	0xbd610a21	-0.0549413
34	0x3c97dd78	0.018538222
35	0x3c5af40d	0.01336385
36	0xbc7ae2fa	-0.0153129045
37	0xbd672483	-0.056431305
38	0x3de086b2	0.10963191
39	0x3c8acddb	0.016943863
40	0xbd2cec50	-0.042217553
41	0xbed45d9f	-0.41477677
42	0xbe8d3c27	-0.27584955
43	0xbe37045e	-0.1787276
44	0xbd828345	-0.06372694
45	0x3e80ccc3	0.2515622
46	0x3c768567	0.015046454
47	0x3d5d42ea	0.054018892
48	0x3d8b44dd	0.06800244
49	0xbcc91748	-0.024547234
50	0x3d458fb7	0.04823276
51	0x3dac31cf	0.08407938
52	0x3c93ea98	0.018056199
53	0x3c59cf90	0.013294116
54	0x3c01a96d	0.007913929
55	0xbd2427b5	-0.04007693
56	0x3e3e79ff	0.18601225
57	0xbf17a589	-0.5923696
58	0x3b5418a0	0.003236331
59	0x3cbb4f40	0.022864938
60	0x3d977bfb	0.07396694
61	0xbe522bd8	-0.20524538
62	0x3c550973	0.013002741
63	0xbbc4310a	-0.005987291
64	0x3c8db124	0.017296381
65	0xbbdaafb7	-0.006673779
66	0x3be1a546	0.006886157
67	0x3c8dd9be	0.017315742
68	0xbcbd17a0	-0.023082554
69	0x3b24dfa7	0.0025157721
70	0xbcb75606	-0.022379886
71	0x3c65132d	0.013981623
72	0x3b6db700	0.0036272407
73	0xbce353e6	-0.027749967
74	0x3cb90ca0	0.022589028
75	0xbcb0b58a	-0.02157094
76	0xbbf6c988	-0.0075313486
77	0x3cffb1a0	0.031212628
78	0xba088640	-0.0005207993
79	0xbcecc614	-0.028903045
80	0xbe228e78	-0.1587466
81	0xbe2296a0	-0.15877771
82	0x3d2b2851	0.041786496
83	0xbd4c0d40	-0.049817324
84	0xbd257c9b	-0.040402036
85	0xbbe68181	-0.007034481
86	0x3bcd82bc	0.0062716883
87	0xbcb2b546	-0.021814954
88	0x3e766f62	0.24065927
89	0xbee1d7b8	-0.44109893
90	0x3a03e265	0.0005030989
91	0xbc7cdb0c	-0.015433084
92	0x3c1a8b22	0.009432586
93	0x3b123d80	0.002231449
94	0x3c3df5a3	0.011594209
95	0x3d5c1b27	0.053736832
96	0xbbe066a2	-0.0068481723
97	0x3d6a39c7	0.057184007
98	0x3cde54e5	0.02714009
99	0xbd3e082b	-0.04639451
100	0xbe2a2fa1	-0.16619731
101	0x3e1fdc0b	0.15611283
102	0xbc97d0ac	-0.01853212
103	0x3c01f4e6	0.0079319235
104	0xbd1fe722	-0.039038785
105	0xbc04de3c	-0.008109625
106	0xbd241087	-0.040054824
107	0xba73a3b1	-0.0009294106
108	0xbdd87a05	-0.105701484
109	0xbd2e0513	-0.042485308
110	0xbd146309	-0.03622726
111	0xbcd21839	-0.025646316
112	0xbcc5e388	-0.024156347
113	0xbc9b2fbf	-0.018943666
114	0x3a845693	0.0010096602
115	0x3c99f5e4	0.018794008
116	0x3c89a5d6	0.01680271
117	0xbc7f2f5e	-0.015575258
118	0xbd146706	-0.036231063
119	0x3c71638a	0.014733205
120	0x3b80ce75	0.0039308616
121	0xbcb29fce	-0.021804716
122	0xbcf013ec	-0.029306374
123	0xbcd3708f	-0.025810508
124	0xbbefc471	-0.007317119
125	0xbc189174	-0.0093120225
126	0xbcf55fbb	-0.029952874
127	0x3ab8fa55	0.0014112691
128	0xbc92f4a6	-0.017938923
129	0xbc47d950	-0.012197807
130	0x3a9051e7	0.0011010737
131	0xbc7d459e	-0.015458493
132	0xbca756f0	-0.020427197
133	0x3cf850a2	0.030311886
134	0xbc3d1618	-0.011540912
135	0xbb94b4a0	-0.0045381337
136	0x3c2f1efc	0.01068854
137	0xbcfc5a3a	-0.030804742
138	0xbc544a57	-0.012957177
139	0x3ce0aec4	0.027427085
140	0xbbbd3b76	-0.0057749106
141	0x3b8dd86a	0.004328777
142	0xbb9df72a	-0.004820724
143	0xbba327db	-0.0049791164
144	0x3e1a2d72	0.15056399
145	0xbded94fb	-0.116006814
146	0xbbbd59a2	-0.0057785073
147	0x3ca839f8	0.020535454
148	0xbdd3f331	-0.103491195
149	0x3cd657d4	0.026164927
150	0xbc73a0a3	-0.014869842
151	0x3c308539	0.01077395
152	0xbc847b7d	-0.016172165
153	0x3bc5eb24	0.006039994
154	0xbe40c214	-0.18824035
155	0xbbafe886	-0.005368295
156	0xbbd50b7a	-0.0065016123
157	0x3c717e52	0.01473959
158	0x3c27472a	0.010209838
159	0xbd45013d	-0.048096884
160	0x3cc8c257	0.024506731
161	0x3cbe0ab5	0.023198465
162	0xbd763c03	-0.060115825
163	0x3d525b88	0.051356822
164	0xbda357aa	-0.07975705
165	0x3d633bba	0.05547688
166	0x3dd6a055	0.104798
167	0xbd26c8ed	-0.04071896
168	0xbc6973e1	-0.014248819
169	0xbc97905e	-0.018501457
170	0xbd4b84a2	-0.049687035
171	0x3ca3347f	0.019922493
172	0x3b49b777	0.003077952
173	0xbe303e83	-0.17211346
174	0xbca93a8a	-0.020657796
175	0x3d4bdfd4	0.049774006
176	0xbc46c7a4	-0.012132559
177	0xbdb19c16	-0.08672349
178	0x3925ba6d	0.00015805075
179	0x3db49bad	0.08818755
180	0x3cefeb39	0.029286968
181	0x3bbb5002	0.005716325
182	0x3adaad15	0.0016683663
183	0x3d8c0d63	0.06838491
184	0xbc9f0204	-0.01941014
185	0x3e7e478c	0.2483198
186	0xbd30437d	-0.04303311
187	0xbc374786	-0.011186486
188	0x3c968728	0.018374994
189	0x3c763378	0.01502692
190	0x3d5fa7ee	0.05460351
191	0xbdf14b8d	-0.11781988
192	0xbc4d43a0	-0.01252833
193	0x3c44f947	0.012022323
194	0xb9437774	-0.00018641149
195	0xbc1ee6d5	-0.009698589
196	0xbb557f05	-0.003257693
197	0x3a9f8c17	0.0012172487
198	0x3bdb165a	0.006686014
199	0xbc9449c1	-0.018101575
200	0x3c9d4a74	0.019200541
201	0x3c32c77a	0.010911817
202	0xbbaa24c0	-0.005192369
203	0xbd34f4cd	-0.044178773
204	0x3b9a23fd	0.004703997
205	0xbcc7ac79	-0.024374234
206	0x3d10d60c	0.03536038
207	0x3d0eacde	0.034832828
208	0xbb19829e	-0.0023423801
209	0x3dd8cddc	0.105861396
210	0x3d81f6d4	0.06345907
211	0xbd0214c8	-0.0317581
212	0xbcb2f732	-0.021846388
213	0x3da185cc	0.07886848
214	0x3cc76e06	0.024344455
215	0xbe37f8be	-0.17965981
216	0xbe37872d	-0.17922659
217	0xbc14197b	-0.009039278
218	0xbdc1167c	-0.09428117
219	0xbcd600aa	-0.026123364
220	0x3dc6b0d6	0.097016975
221	0xbd85dbbb	-0.06536051
222	0x3da726ac	0.08161673
223	0xbde54481	-0.11194707
224	0xbacc5c1f	-0.0015591419
225	0x3cbf3ec9	0.023345368
226	0xbc8663d0	-0.016405016
227	0x3c41aa07	0.011820323
228	0x3aa0a4e9	0.0012256178
229	0x3d6992ee	0.05702489
230	0x3c97cb31	0.018529506
231	0x3c331dfb	0.010932441
232	0xbd3d4dd6	-0.04621681
233	0xbbee3fcf	-0.00727079
234	0x3d0c0fd2	0.034194775
235	0xbd5a3cca	-0.05328063
236	0x3bb7c6a6	0.0056083975
237	0xbde908cf	-0.11378633
238	0x3c5e31f2	0.013561713
239	0x371dd4c5	9.4074685e-06
240	0x3d4438a4	0.04790558
241	0xbd3be0d3	-0.045868706
242	0xbd01b3ff	-0.0316658
243	0x3dfaf7ed	0.12254319
244	0xbad2d7ae	-0.0016086006
245	0xbd90c5d3	-0.07068982
246	0x3ce2b140	0.02767241
247	0xbbe96678	-0.007122811
248	0xbcb73633	-0.022364711
249	0xbe148dce	-0.14507219
250	0x3d85efef	0.06539904
251	0xbd24c89b	-0.040230375
252	0xbd27e1f8	-0.040986985
253	0xbb4b8635	-0.0031055335
254	0xbc230ff4	-0.009952534
255	0x3d1ed973	0.038781594

encoder.fc_mean.bias f4 [2]
0	0xbdc5960a	-0.09647758
1	0x3e2c20e6	0.16809425
