assignment2/part3/logs/gat/version_0/checkpoints/epoch=49-step=50.ckpt (torch, 718608 bytes, 4 tensors)

model.layers.0.W f4 [124, 1433]
00000000: 3515 bb3c 5f97 173c ae0f f43c f5e8 db3d
00000010: 14ce 7fbd 9d23 36bd 20b5 44bc fede b03d
00000020: ef59 1f3c 2f5a 25bd 2f94 513c 0d15 a63b
00000030: f755 c03d 06d8 2f3d 7190 b5bc c20d 113d
00000040: c040 783d fa77 903b 7368 a9bd 6e64 783d
00000050: e781 cc3a fc8f 313d 300a 92bd d1a4 b43d
00000060: d76f 13bc ee1b d3bb 6e32 6bbd b76a 6bbd
00000070: 22f8 fb3c 3309 41bc 0dbd b3ba 64d3 41bc
00000080: 7f8f 063c ac75 733d 03b8 88bd 0155 43bb
00000090: e583 82bc d85c af3b c64b 5f3d 9894 d63c
000000a0: 6fd5 0bbd 3881 e93c b943 9f3d 6265 b33b
000000b0: fec1 eabb e708 9bbd f7e2 97bc c1f9 3dbd
000000c0: 159a 983d 8314 edba 9038 eabd 8014 9cbd
000000d0: 2292 e3bc c32c 2b3c fc42 cfbc 1b1d 61bb
000000e0: 9a79 8f3d 439f ff3c 86b8 813d 10e4 6abd
000000f0: 5354 5e38 33a4 1b3c 1ba1 2e3d c16c f13c
00000100: 7bd1 6abc f66c 8dbd f578 833c ea2b 813c
00000110: 8079 b6ba d3c3 c2bd fb56 8a3d f0b7 753d
00000120: 879f d23d 0e1a 63bb 1111 ebbd 8c71 35bb
00000130: ee52 b9bd a0ca d03c e770 febc eaf8 d13d
00000140: deff 35bd 448b d03a adf0 87bb ce61 a1bd
00000150: c34b 19bc a6ad f33c 876c a33d 8a0f c5bd
00000160: 61ed 9a3b 2005 8b3d 1931 de3c 4f2c 53bd
00000170: 6cf2 38bc 31b6 f8bb e02b 573b 6847 a6bd
00000180: eeca 063d 2096 9139 9eb7 1cbd ed1d 34bd
00000190: 654e b9bd 05c3 2f39 a3f9 7abd f478 523b
000001a0: dd9f 433d 9e5e aa3b 30fb a8bd 7640 91bd
000001b0: 155d c5bd c96c f23b 1f5f 9f3c 6c4b dd3c
000001c0: cf3d 1fbd dade 82bc 15d8 c0bd 49d8 93ba
000001d0: 450c 3bbd aa20 d2bd b045 7bbd 89f8 adbd
000001e0: 8b92 423d 38ba 883c a6f9 68bd 89b8 dabb
000001f0: 80c1 99bd 5179 adbc 262c 55bd c269 d4bd
00000200: 02f2 b53d a81b 153d a1bd c33d 3446 7f3d
00000210: d5e2 22bc fef5 a83d a984 fa3b 259d 943c
00000220: a963 f3bb a604 9dbc 217a 03ba ee3b 85bc
00000230: 3126 f73c be7f 6fbd 5edc a73d cf04 9dbc
00000240: 699f 22ba a36a 2f3a b45b 973d 5516 b7bb
00000250: e8dc 213c f381 94bd d2d2 763d a470 98bd
00000260: fa1b 293d 3447 4ebd a064 c53c 7553 4dbd
00000270: 209e 823d 573c f23c 63fc 763d 5672 dc3b
00000280: 0251 c93d edd6 823d cd1d d13c 504f 2bbd
00000290: a7ed f43c 15c9 1d3d 924e 793a cad1 c13c
000002a0: 2cd5 823a f547 8f3c ecd3 aabd a153 14b9
000002b0: ca14 123c c336 ce3c 8de5 9dbd 5979 e43c
000002c0: a7b0 8eba 9e36 0bbd b6b5 a4bb 0dce dfbb
000002d0: b690 e439 94a5 2b3d 864d ddbb 27db 92bd
000002e0: 4911 16ba 46f6 01ba 3b4a e2bc 32b8 7ebd
000002f0: 1fa2 e7bb 522a 35bd 4f77 28bd 1b14 30bd
00000300: 7961 243d ffb9 493c 8598 d43c dbfd 193d
00000310: 1c1d eebc 9242 5cbd 286f a53b 7e37 333d
00000320: df75 83bd e813 943c 3fb7 b73b 9006 803d
00000330: 7fb7 16b9 238c a9bd e04a 55bd d89f 7bbc
00000340: 2fe1 bebb 51a4 cb3c e68c 14bb 9696 ab3c
00000350: 61cd b6bd a82f 21bc b04c 1a3d 0410 d33d
00000360: a7b7 7739 97db d33c bf6e 963d 022a 31bd
00000370: a15f 71bd b1c5 2f3c 1443 93bd f234 39ba
00000380: 2df5 f0bd df17 dfbb 95fc cd3d 0b8e 8c3d
00000390: e02d a2bd 5105 4fbd 551b e5b8 3448 ba3d
000003a0: 3de6 7dbb b0de 99bb 9941 8fbc 96fa 7d3d
000003b0: 74a3 43bd e365 a23b 9fd1 e4bb d48b c9bc
000003c0: 546d 823d 6dd3 853c 2f28 21bc 8cd3 adbd
000003d0: 04c0 193c c8a3 8b3b 265c 5abb c87d 983d
000003e0: c507 5fbd 98ec 5ebc dd5a a23c 72c5 89bb
000003f0: 382c 283d 0ed1 303c c55e 04bd 78c0 41bc
0.02283726 0.009252398 0.029792633 0.107377924 -0.06245239 -0.044467557 -0.012006074 0.086362824
0.009726032 -0.04036921 0.012791677 0.0050684274 0.093913965 0.042930625 -0.022163602 0.03541351
0.060608625 0.0044088336 -0.08271875 0.060642652 0.0015602679 0.043350205 -0.07130849 0.08820499
-0.008998833 -0.0064425385 -0.05742114 -0.057474818 0.030757967 -0.011781978 -0.0013712958 -0.011830185
0.008212923 0.059438393 -0.066757225 -0.0029805305 -0.015932033 0.005351644 0.054515623 0.026193902
-0.034139093 0.028504 0.07776589 0.0054747323 -0.007164239 -0.07570057 -0.018540842 -0.046380762
0.07451264 -0.0018087778 -0.1143657 -0.076210976 -0.027779642 0.010447684 -0.025300495 -0.0034349624
0.070056155 0.031203872 0.06334023 -0.057346404 5.3007458e-05 0.009499597 0.04263411 0.029470803
-0.014332171 -0.06905548 0.016048888 0.01576801 -0.0013921708 -0.09510007 0.067548715 0.05998987
0.10284334 -0.003465298 -0.114778645 -0.0027686087 -0.09049021 0.025487244 -0.031059695 0.10252555
-0.044433467 0.0015910645 -0.004148564 -0.07879983 -0.009356442 0.029745888 0.07979684 -0.096221045
0.004728005 0.06788087 0.027123021 -0.051555928 -0.011288267 -0.0075900783 0.0032832548 -0.081190884
0.032908373 0.00027768407 -0.03826105 -0.043973852 -0.09048156 0.00016761951 -0.06127323 0.003211555
0.04775988 0.0051992675 -0.08251035 -0.07092373 -0.096368946 0.007398222 0.019454537 0.027013503
-0.038877305 -0.015975405 -0.094162144 -0.0011279668 -0.045665998 -0.102601364 -0.061345756 -0.0849467
0.047503036 0.016690359 -0.05687871 -0.0066748303 -0.0750761 -0.021176012 -0.052044056 -0.10371734
0.0888405 0.03640333 0.09557653 0.06232281 -0.009941776 0.08250044 0.007645209 0.018141339
-0.007427652 -0.019167256 -0.0005015452 -0.016263928 0.030169578 -0.058471434 0.081963286 -0.019167332
-0.00062035635 0.00066916103 0.07390538 -0.005587379 0.009879328 -0.07251348 0.060259648 -0.074433595
0.041286446 -0.050360873 0.024095833 -0.05012842 0.06377816 0.029569788 0.06029929 0.006727497
0.09829904 0.0638865 0.025526905 -0.041823685 0.029898478 0.038521845 0.0009510304 0.023659606
0.0009981743 0.017490366 -0.08341202 -0.00014145534 0.008916089 0.025172597 -0.07709799 0.027889894
-0.0010886387 -0.033987634 -0.0050265444 -0.006829983 0.00043595367 0.041905954 -0.0067536263 -0.07170706
-0.00057246216 -0.0004957657 -0.027623286 -0.06218738 -0.007068887 -0.044229813 -0.041129407 -0.042987924
0.04013202 0.012312411 0.025951633 0.03759561 -0.029066615 -0.053774424 0.0050486512 0.043754093
-0.064189665 0.018075898 0.0056065614 0.06251252 -0.00014373472 -0.08278682 -0.05207336 -0.015357934
-0.005825184 0.024858626 -0.002266699 0.020945828 -0.08925892 -0.009838022 0.03767079 0.10305789
0.00023624171 0.025861545 0.07345342 -0.043252952 -0.05892909 0.010728286 -0.071905285 -0.00070650794
-0.117655136 -0.0068082656 0.10057942 0.0686303 -0.07918906 -0.05054218 -0.00010924662 0.09095803
-0.003874197 -0.004695736 -0.017487334 0.062006555 -0.047763303 0.0049559935 -0.0069829966 -0.024602808
0.06368509 0.016336167 -0.009836241 -0.08487615 0.009384159 0.0042614676 -0.0033319085 0.07445866
-0.05445077 -0.013606213 0.019818718 -0.0042044455 0.041057795 0.01079203 -0.03231694 -0.011825673

model.layers.0.a f4 [248]
00000000: 74c8 2b3f 8086 313f ae74 173f cd88 bc3e
00000010: 23af 333f d9a9 c63e 3cf8 f03e cc4c 203f
00000020: 4923 a83e 273e 403e 5a39 863d 1bfd 0f3f
00000030: ebf6 593e 6c29 523f 2db6 023f 0c78 783e
00000040: 2e7d a73e d062 5a3f 55af 5a3e 0dd9 693f
00000050: e02c 4d3e a957 4a3f 60de c33e ba01 2b3f
00000060: b1dc 633f 426b 173f 9d31 953c 6d88 313f
00000070: 9e3b ef3e b9ec a93e 8d99 8b3e b23b 583e
00000080: 1f33 4c3f 9d18 053f 6086 b33e dc21 723f
00000090: bd10 c53e 555e 303e 4fef 2a3f 14db e83e
000000a0: 0418 383e 2cbc 813f 67f1 cc3e 4d0d b23e
000000b0: f538 673f 99ff c13c 0803 743f c9f6 003d
000000c0: b2f2 f33e 9448 8f3e 0ee9 0d3e 7197 213e
000000d0: dd99 e13e 3568 a53e 4891 ca3d 193d 953e
000000e0: d585 d73e b3db 063e a153 fa3e 24fa 913b
000000f0: 1c6e cf3e d780 c73e 3871 633f 9b54 723f
00000100: a24c 5d3f 2508 033f ff48 533f 47df 1c3f
00000110: 5163 e83e 1a6e dc3e 6831 5c3e ba4f 9e3d
00000120: e5f7 263f d435 3c3f cadd 053f 3621 783f
00000130: c9e7 303e 07d7 2d3e 6fbc c13e 9470 9d3e
00000140: c108 c73e b74f 743e 2b93 373f 101b 8a3e
00000150: bf95 be3e 88b0 853e b5a3 6d3f 40f4 a4bc
00000160: fc40 d03d 7617 6e3f fc31 123f 4e19 743e
00000170: afcc 2f3f e138 c23e 7029 953e f851 0bbd
00000180: b04e 863f 18dc 723f 5edf 803f c67f 053f
00000190: 243f 463f 4c2e 6d3f d26a a33e d679 013f
000001a0: 0922 f73d 27d4 2d3f 01f9 4c3f 1d50 463e
000001b0: 7f39 4a3f 7eab 373f 0327 343f dba5 013f
000001c0: d6ca 113f e84d a23d d4f0 503f 857c 463e
000001d0: cd0c e13e 7ee5 453f ba04 1c3c c6c1 223e
000001e0: f42b b13e e02e f33e 53ab 693f 7438 093f
000001f0: 6588 6b3e 5f72 d43e 9448 303e 5e18 313f
00000200: 35de c1bc 65d6 2e3f a8bf 0c3e d2e2 123d
00000210: 2afa 663e 3fb9 ff3e 5d93 563e 97dc 29bc
00000220: 8cbf 5f3f 7e6f f13e 68fd c53e f3e2 273d
00000230: c113 f93e 2e9d 573e 8520 143f 6e54 403f
00000240: 62af 373f 5d1f 633f 9bd7 1b3f 04bd 203f
00000250: a4eb 4d3f a66c 663e 472b 553f 22d6 a23e
00000260: e7cc 2f3f 89c9 353f c85a b63e 2598 833f
00000270: 5cf8 0a3f 5118 2f3e 936a 333f b19e 283f
00000280: 4946 803e 568a a43e 2035 3e3f ed41 8b3e
00000290: ff2c 4a3f 0165 553f be1f 513f 70e3 2a3f
000002a0: 22ba 033f ff43 173f faf4 253f f6b4 283f
000002b0: 7758 d93b 512c 7c3e f096 503f 329e 9c3e
000002c0: cc9c 9f3e 6c03 293f ef1b 893e 864c b33e
000002d0: d455 293f 07c3 b03e f134 8f3e f137 463f
000002e0: 13c0 e33d 2537 943e df05 053f cf1e 4a3f
000002f0: a8db 2f3f df86 593e a129 a63e 06b2 163f
00000300: dde4 3b3f e791 363e d8c5 083f 3af7 d53e
00000310: 4df0 d53e ec22 213e 1879 7f3e 42b3 523f
00000320: df0a 023f 27c2 253f 012c 6f3f d346 a93e
00000330: 1bc0 713e 686e 1b3f b855 203f dd83 923e
00000340: f4e0 523f d1cf 243c 0652 813f 6e17 783f
00000350: 0187 3f3e 386d ef3d f070 2d3d 8726 a73e
00000360: 96b1 4f3e 71a7 d03e 67c2 1abc e20c 853e
00000370: 6691 5d3f 87af 143f 14f9 513e 1da9 e93e
00000380: 4ba4 403f f910 133c b412 373f bd30 163f
00000390: 1a0b 1f3e 8a18 203f 36e6 4d3f 229b 343f
000003a0: 9970 2b3f e12b 263f b1c1 aa3e 5250 703e
000003b0: 1df9 783e 8a6f 843e b1d5 c23e 6376 443f
000003c0: e7f5 59bc 1323 693f 4f0d 5e3f 7887 623f
000003d0: 167d 083e 0b51 3e3f 4264 713f 3481 273f
0.6710274 0.69345856 0.59162414 0.3682312 0.7018911 0.38801458 0.47064388 0.6261718
0.3283942 0.18773709 0.06553908 0.56245583 0.21285598 0.82094455 0.5105923 0.24264544
0.32712692 0.85307026 0.21355946 0.9134682 0.2003665 0.7904001 0.38255596 0.6679951
0.89008623 0.5914804 0.018212134 0.69348794 0.46725172 0.33188418 0.27265587 0.21116522
0.79765505 0.5199068 0.35063457 0.94582915 0.38489333 0.17223485 0.66771406 0.45479643
0.17977911 1.013555 0.40027925 0.34775773 0.90321285 0.023681449 0.95317125 0.031485353
0.476461 0.2798506 0.13858435 0.15780427 0.440627 0.32306066 0.098909914 0.29148176
0.42094293 0.13169746 0.4889193 0.004454868 0.40513694 0.38965484 0.88844633 0.9466035
0.8644506 0.511843 0.8253326 0.61278194 0.45388272 0.4305275 0.21503222 0.077300504
0.6522201 0.73519635 0.5229155 0.96925676 0.17275919 0.16976558 0.37839076 0.30749953
0.38873866 0.23858534 0.71708935 0.26973772 0.37223622 0.26111245 0.9282792 -0.020135999
0.10168645 0.9300455 0.5710752 0.23837778 0.686717 0.3793402 0.29133177 -0.03401372
1.0492764 0.94867086 1.0068166 0.5214809 0.77440095 0.9264877 0.31917435 0.5057653
0.120670386 0.67901844 0.8006745 0.19366498 0.7899398 0.7174605 0.7037203 0.506437
0.5695013 0.07925016 0.81617475 0.19383438 0.4395508 0.773033 0.009522611 0.15894231
0.34603846 0.474967 0.91277045 0.53601766 0.23001249 0.41493508 0.17215186 0.69177806
-0.023665527 0.6829589 0.13744986 0.035860844 0.22556368 0.4994602 0.20954652 -0.010367534
0.8740165 0.47155374 0.38669896 0.04098792 0.48647884 0.21056053 0.5786212 0.7512883
0.7175199 0.8871973 0.6087586 0.62788415 0.80437684 0.22502384 0.8326916 0.31803995
0.6867203 0.71010643 0.35616136 1.0280806 0.54285216 0.1709912 0.70084494 0.65867144
0.25053623 0.32136792 0.7429981 0.27198735 0.7897491 0.83357245 0.8168906 0.6675329
0.5145589 0.5908813 0.6482693 0.65901124 0.0066328603 0.2462628 0.8148031 0.30589443
0.31174314 0.66020846 0.26779124 0.3501932 0.6614659 0.34523794 0.2797008 0.7742911
0.111206196 0.28948322 0.51962084 0.7895326 0.68694544 0.21242855 0.32453635 0.5886539
0.7339609 0.17829095 0.53426886 0.4179018 0.41784897 0.15735978 0.24948537 0.82304776
0.5079784 0.6474938 0.9342652 0.33061847 0.23608439 0.6071534 0.62630796 0.2861623
0.823745 0.010059313 1.0103157 0.9691075 0.18703844 0.11690754 0.042344034 0.32646582
0.20282587 0.40752748 -0.009445763 0.2598639 0.86549985 0.58080333 0.20505172 0.45636836
0.7525069 0.008976215 0.71512914 0.5866812 0.15531579 0.62537444 0.804294 0.70549214
0.66968685 0.64910704 0.333509 0.2346814 0.24313779 0.25866348 0.3805366 0.76743144
-0.013303257 0.91069144 0.8673906 0.8848796 0.13328966 0.7434241 0.94293606 0.65431523

model.layers.1.W f4 [7, 124]
00000000: 3fc1 d53c 2b2b b4bd 7878 5d3e c5fc 613e
00000010: 01bb 28be a957 d6ba 87c2 ad3b 71c0 1dbd
00000020: 4675 24bd 331a dbbd f385 52bd d00b bcbd
00000030: b4fd 3abe 010c 3abe 9031 3abe acf6 fabd
00000040: 5736 b0bc eccc 2c3d 72d9 123c cfa1 38ba
00000050: 1a8d 14be 7d94 a03b 71e7 11be 6998 45be
00000060: 26e9 643e 9b0c 513e 9491 3bbc 18f1 f2bc
00000070: d7b5 2ebe 4345 0b3d 5e92 8bbd 8691 153e
00000080: b705 92bd 807c 1dbe 8caf 20bd 38fd 38bd
00000090: 960e 3abe 9ad0 d23d 0d7f 733e 5771 c6bd
000000a0: fe52 453e ebae 5f3e 039a df3d ab42 123e
000000b0: e7ee 963c eb8c b93d 6372 25be c727 04be
000000c0: dbba b2bd 4ea2 083e 1407 d0bd 594c ecbd
000000d0: 2d13 50bd a4c0 41be c992 d0bd 2cad ca3d
000000e0: 3e4a 4f3e e9c6 413d 1a0b 1ebe 4a1c fcbd
000000f0: 9783 c2bc 40cd ef3d 8fab 063e 2fcc 5a3e
00000100: 94cc 623e d721 bcbd b368 90bc 4eba 3d3e
00000110: 43ff d03d 6204 253e 00f8 95bd cfed 7e3d
00000120: 0e74 f5bd 55d6 4e3e 6dc9 883d 74ab aa3d
00000130: a943 483e be12 3ebe b251 2bbd 44f6 d9bd
00000140: 6291 1dbd bf07 973d 6a2d 753e c684 4d3e
00000150: c381 d6bd 1367 b83d de22 763e a1ad 973d
00000160: a065 4f3e 6e73 46be c9ae 24be 61cc 81bd
00000170: 4176 bf3d 48b7 13be 86f6 913d 301f 653b
00000180: fb3f 393e 52a8 603e 4c9a 02be 2d72 243e
00000190: 61e9 3ebe a5f2 2ebd 0f9e 11be b94f 45bd
000001a0: 0372 83bd 0ee2 ffbd a5e0 d9bd a0b8 313e
000001b0: 60e2 d1bd 68c8 093e bfed 2e3d 7314 04be
000001c0: 0625 62bc 6f17 e4bd 1819 48be d42b 0ebc
000001d0: 85a7 47be 26e5 bf3d 07e2 563d ecce 5c3e
000001e0: cc07 803c 4c30 08be e2f0 3bbe 3c57 69bd
000001f0: a36b adbd 6811 893d 7ce5 3dbd 3173 e63c
00000200: f2f6 783d ed51 983c eb8d 49bd aa58 50bd
00000210: 4b0b 1fbe 47e8 a73d 2ffa e7bd 2e0e 0a3e
00000220: 211d 92bd d79a 153c 7bc5 1c3e 8054 453e
00000230: 79ea 473e 70d1 0d3d 15c4 3d3e 4ee7 ab3d
00000240: df4f 323e 19f3 4abe 35ee dbbd 6be2 9c3d
00000250: ad76 43be c23a 2b3e 2957 493e 5e57 17bd
00000260: dae7 d1bc 9a54 2fbe a264 6dbe 5d6b d3bd
00000270: f2de 39be b849 263d 96b5 4c3e f735 143e
00000280: 547c 213e 6c42 3d3e 9ec2 a0bd 10ba 123e
00000290: 68a9 293e c833 193e b592 bb3d 77e8 51be
000002a0: 9be4 ad3d 6c8d 833d ffe0 e2bd 5302 34be
000002b0: dac2 4b3d fb1d d9bd a30a 48be 85b4 f7bd
000002c0: ce11 df3d b804 35be cb0f fe3b 2003 183d
000002d0: e96d 4b3e 3dd3 bcbd 8bda 263d fcc4 4e3d
000002e0: b02c 253d 587d b53d 444b 0f3e 992a 393e
000002f0: 1fd0 7e3d 56a1 1fbe 2f8a b5bd d035 2b3e
00000300: ba88 21bd 1ebb 713d a8f4 07be 653b 683d
00000310: c553 f93d 88e3 00be 9a4f 203d 18a7 debd
00000320: 94bd 54bd 551d 13be 4f0b 193e e9cd 2cbe
00000330: f0a7 293e 7efd 49be bddc 53bd edc7 6cbe
00000340: 28d4 ad3d 4689 353e 3cc0 583c 2c5c d9bd
00000350: 4997 ce3d fc6e 6dbd 8925 94bc f3ee ca3c
00000360: bb76 233e abb0 2cbd 57fe f43d b046 363e
00000370: 6c16 16be f28f 18be ba6d 193e c891 13bd
00000380: 1e79 4ebe cb16 d93d 88b8 2ebe a08c 3ebe
00000390: 80c4 053e 737d 073e dd11 33be 30bc 1f3e
000003a0: 6f43 16be e4f8 debd 4961 383d 2dff 18be
000003b0: ae7c e43d 2f87 12be 8d2a c53d d15f e13d
000003c0: e60c 4a3e 6482 3b3c 2891 b73d fbdf 62be
000003d0: 2436 313d b7c0 343e c5d7 32be d26d 1e3c
000003e0: 3607 90bd 86a8 3a3e fd04 243e a881 48be
000003f0: 37b5 20be b7d1 c1bd 719c 83bd 4f46 5abe
0.026093123 -0.08797296 0.21627986 0.2206908 -0.16477586 -0.0016353029 0.0053027305 -0.038513605
-0.040150903 -0.106983565 -0.051397275 -0.091819406 -0.18260843 -0.18168642 -0.18182969 -0.1225408
-0.021510286 0.042187616 0.008962976 -0.00070431543 -0.14506951 0.0049005137 -0.14248444 -0.19296421
0.22354564 0.20414965 -0.011448283 -0.029655978 -0.17061554 0.0340016 -0.06815027 0.14606294
-0.07129996 -0.15379524 -0.039229915 -0.045163363 -0.18169627 0.10293694 0.23778935 -0.096895866
0.1926994 0.2184407 0.10918047 0.14283244 0.018424464 0.09060081 -0.16156916 -0.12905799
-0.08727046 0.13343164 -0.101576 -0.11538 -0.050799537 -0.18921143 -0.10184247 0.09896311
0.20243165 0.047308836 -0.15433922 -0.12310083 -0.023744388 0.1170907 0.13151382 0.21366952
0.22148353 -0.09186142 -0.01762805 0.18528101 0.10204937 0.16114953 -0.07322693 0.06223851
-0.11985026 0.20198949 0.06679044 0.08333483 0.1955706 -0.18561837 -0.041825958 -0.106426746
-0.038468726 0.07374524 0.23943105 0.2007018 -0.10473969 0.09004035 0.24036738 0.07406164
0.2025361 -0.1937997 -0.160823 -0.0633781 0.09348727 -0.14425385 0.07127099 0.0034961216
0.18090813 0.21939209 -0.12754172 0.1605918 -0.18643714 -0.042711873 -0.14220451 -0.048171733
-0.064182304 -0.124942884 -0.10638551 0.17355585 -0.10248256 0.13455355 0.0427072 -0.12898426
-0.013802772 -0.11137282 -0.19540823 -0.008677442 -0.19497497 0.093698785 0.05246165 0.2156331
0.015628718 -0.13299674 -0.18353608 -0.05696796 -0.08467796 0.06692773 -0.04636143 0.0281311
0.06078238 0.018593753 -0.04920761 -0.050865807 -0.15531652 0.081986 -0.113270156 0.13481972
-0.07134462 0.009131155 0.15309708 0.19270515 0.19523038 0.034623563 0.1853183 0.08393727
0.17413281 -0.19819297 -0.10738794 0.07660373 -0.1908824 0.16721633 0.19662155 -0.036948554
-0.02562325 -0.17122117 -0.2318292 -0.10323212 -0.18151453 0.040597647 0.19991145 0.14473711
0.15770084 0.18482369 -0.0784962 0.1432879 0.1656853 0.14961159 0.091588415 -0.20498835
0.08490869 0.064234585 -0.11078071 -0.17579012 0.04974637 -0.106014214 -0.19535308 -0.12094978
0.10892068 -0.17677581 0.0077533475 0.037112355 0.19866146 -0.09219978 0.040735763 0.050480828
0.04032582 0.08861798 0.13993555 0.18082656 0.0622102 -0.15588889 -0.08864247 0.16719747
-0.039437033 0.05901634 -0.13276923 0.056697268 0.12174181 -0.12586796 0.039138414 -0.10871714
-0.05193861 -0.14366658 0.1494572 -0.16875423 0.1656797 -0.19725606 -0.051724184 -0.2312314
0.08487731 0.17728147 0.013229426 -0.106132835 0.10087449 -0.05796717 -0.018084304 0.024772143
0.15963261 -0.04216067 0.11962574 0.17800403 -0.14656991 -0.14898661 0.14983264 -0.0360277
-0.2016339 0.106000505 -0.1706258 -0.18608332 0.1306324 0.13231449 -0.17487283 0.15599132
-0.14674161 -0.10887316 0.045014653 -0.14941092 0.11156593 -0.14309381 0.096272565 0.11004604
0.19731483 0.011444662 0.08963233 -0.22155754 0.043264523 0.1765164 -0.17465122 0.009669738
-0.070326254 0.18228349 0.16017528 -0.1958071 -0.15694128 -0.09463828 -0.06426323 -0.21315883

model.layers.1.a f4 [14]
00000000: 0316 363f 7930 303f 001b 843f 3035 6d3f
00000010: 4800 8c3d cdc9 2a3f 2352 033f b21f 823e
00000020: e711 2e3f 3bc0 a53c b0f3 473f 3124 603f
00000030: 5782 183f 52a3 463f
0.7112734 0.68823963 1.032074 0.9265928 0.06835991 0.66714174 0.51297206 0.25414807
0.67996067 0.020233264 0.7810621 0.87555224 0.5957388 0.7759296
